module attributes {torch.debug_module_name = "_lambda"} {
  util.global private @cst_728 = #util.byte_pattern<1> : tensor<4096xf16>
  util.global private @cst_599 = #util.byte_pattern<2> : tensor<4096x32x1xf16>
  util.global private @cst_632 = #util.byte_pattern<3> : tensor<11008x32x1xf16>
  util.global private @cst_489 = #util.byte_pattern<4> : tensor<4096x86x1xf16>
  util.global private @cst_443 = #util.byte_pattern<5> : tensor<4096x32x1xf16>
  util.global private @cst_58 = #util.byte_pattern<6> : tensor<4096x4096xi4>
  util.global private @cst_29 = #util.byte_pattern<7> : tensor<11008x4096xi4>
  util.global private @cst_383 = #util.byte_pattern<8> : tensor<4096x32x1xf16>
  util.global private @cst_367 = #util.byte_pattern<9> : tensor<11008x32x1xf16>
  util.global private @cst_501 = #util.byte_pattern<10> : tensor<4096x32x1xf16>
  util.global private @cst_592 = #util.byte_pattern<11> : tensor<11008x32x1xf16>
  util.global private @cst_524 = #util.byte_pattern<12> : tensor<4096x32x1xf16>
  util.global private @cst_56 = #util.byte_pattern<13> : tensor<11008x4096xi4>
  util.global private @cst_107 = #util.byte_pattern<14> : tensor<4096x4096xi4>
  util.global private @cst_421 = #util.byte_pattern<15> : tensor<11008x32x1xf16>
  util.global private @cst_190 = #util.byte_pattern<16> : tensor<11008x4096xi4>
  util.global private @cst_570 = #util.byte_pattern<17> : tensor<4096x32x1xf16>
  util.global private @cst_642 = #util.byte_pattern<18> : tensor<4096x32x1xf16>
  util.global private @cst_48 = #util.byte_pattern<19> : tensor<4096x11008xi4>
  util.global private @cst_252 = #util.byte_pattern<20> : tensor<4096x86x1xf16>
  util.global private @cst_18 = #util.byte_pattern<21> : tensor<4096x4096xi4>
  util.global private @cst_541 = #util.byte_pattern<22> : tensor<4096x32x1xf16>
  util.global private @cst_75 = #util.byte_pattern<23> : tensor<4096x4096xi4>
  util.global private @cst_231 = #util.byte_pattern<24> : tensor<4096x32x1xf16>
  util.global private @cst_745 = 9.9999999999999995E-7 : f64
  util.global private @cst_665 = #util.byte_pattern<25> : tensor<4096x32x1xf16>
  util.global private @cst_712 = #util.byte_pattern<26> : tensor<4096xf16>
  util.global private @cst_557 = #util.byte_pattern<27> : tensor<4096x32x1xf16>
  util.global private @cst_159 = #util.byte_pattern<28> : tensor<4096x4096xi4>
  util.global private @cst_701 = #util.byte_pattern<29> : tensor<4096xf16>
  util.global private @cst_497 = #util.byte_pattern<30> : tensor<4096x32x1xf16>
  util.global private @cst_401 = #util.byte_pattern<31> : tensor<4096x32x1xf16>
  util.global private @cst_737 = #util.byte_pattern<32> : tensor<1x1x4096x128xf16>
  util.global private @cst_31 = #util.byte_pattern<33> : tensor<4096x4096xi4>
  util.global private @cst_727 = #util.byte_pattern<34> : tensor<4096xf16>
  util.global private @cst_580 = #util.byte_pattern<35> : tensor<4096x32x1xf16>
  util.global private @cst_391 = #util.byte_pattern<36> : tensor<4096x86x1xf16>
  util.global private @cst_365 = #util.byte_pattern<37> : tensor<11008x32x1xf16>
  util.global private @cst_302 = #util.byte_pattern<38> : tensor<4096x32x1xf16>
  util.global private @cst_76 = #util.byte_pattern<39> : tensor<4096x11008xi4>
  util.global private @cst_120 = #util.byte_pattern<40> : tensor<11008x4096xi4>
  util.global private @cst_385 = #util.byte_pattern<41> : tensor<4096x32x1xf16>
  util.global private @cst_255 = #util.byte_pattern<42> : tensor<11008x32x1xf16>
  util.global private @cst_65 = #util.byte_pattern<43> : tensor<4096x4096xi4>
  util.global private @cst_203 = #util.byte_pattern<44> : tensor<11008x4096xi4>
  util.global private @cst_397 = #util.byte_pattern<45> : tensor<4096x32x1xf16>
  util.global private @cst_176 = #util.byte_pattern<46> : tensor<11008x4096xi4>
  util.global private @cst_239 = #util.byte_pattern<47> : tensor<11008x32x1xf16>
  util.global private @cst_660 = #util.byte_pattern<48> : tensor<11008x32x1xf16>
  util.global private @cst_3 = #util.byte_pattern<49> : tensor<4096x4096xi4>
  util.global private @cst_461 = #util.byte_pattern<50> : tensor<4096x86x1xf16>
  util.global private @cst_124 = #util.byte_pattern<51> : tensor<4096x4096xi4>
  util.global private @cst_649 = #util.byte_pattern<52> : tensor<4096x32x1xf16>
  util.global private @cst = #util.byte_pattern<53> : tensor<4096x11008xi4>
  util.global private @cst_644 = #util.byte_pattern<54> : tensor<4096x86x1xf16>
  util.global private @cst_559 = #util.byte_pattern<55> : tensor<4096x86x1xf16>
  util.global private @cst_234 = #util.byte_pattern<56> : tensor<4096x32x1xf16>
  util.global private @cst_530 = #util.byte_pattern<57> : tensor<4096x32x1xf16>
  util.global private @cst_527 = #util.byte_pattern<58> : tensor<4096x32x1xf16>
  util.global private @cst_634 = #util.byte_pattern<59> : tensor<11008x32x1xf16>
  util.global private @cst_256 = #util.byte_pattern<60> : tensor<11008x32x1xf16>
  util.global private @cst_375 = #util.byte_pattern<61> : tensor<4096x32x1xf16>
  util.global private @cst_683 = #util.byte_pattern<62> : tensor<4096xf16>
  util.global private @cst_561 = #util.byte_pattern<63> : tensor<11008x32x1xf16>
  util.global private @cst_503 = #util.byte_pattern<64> : tensor<4096x86x1xf16>
  util.global private @cst_428 = #util.byte_pattern<65> : tensor<4096x32x1xf16>
  util.global private @cst_303 = #util.byte_pattern<66> : tensor<4096x32x1xf16>
  util.global private @cst_435 = #util.byte_pattern<67> : tensor<11008x32x1xf16>
  util.global private @cst_703 = #util.byte_pattern<68> : tensor<4096xf16>
  util.global private @cst_438 = #util.byte_pattern<69> : tensor<11008x32x1xf16>
  util.global private @cst_193 = #util.byte_pattern<70> : tensor<4096x4096xi4>
  util.global private @cst_183 = #util.byte_pattern<71> : tensor<11008x4096xi4>
  util.global private @cst_139 = #util.byte_pattern<72> : tensor<4096x11008xi4>
  util.global private @cst_422 = #util.byte_pattern<73> : tensor<11008x32x1xf16>
  util.global private @cst_569 = #util.byte_pattern<74> : tensor<4096x32x1xf16>
  util.global private @cst_317 = #util.byte_pattern<75> : tensor<4096x32x1xf16>
  util.global private @cst_565 = #util.byte_pattern<76> : tensor<4096x32x1xf16>
  util.global private @cst_291 = #util.byte_pattern<77> : tensor<4096x32x1xf16>
  util.global private @cst_160 = #util.byte_pattern<78> : tensor<4096x11008xi4>
  util.global private @cst_162 = #util.byte_pattern<79> : tensor<11008x4096xi4>
  util.global private @cst_170 = #util.byte_pattern<80> : tensor<4096x4096xi4>
  util.global private @cst_216 = #util.byte_pattern<81> : tensor<4096x11008xi4>
  util.global private @cst_482 = #util.byte_pattern<82> : tensor<4096x32x1xf16>
  util.global private @cst_112 = #util.byte_pattern<83> : tensor<11008x4096xi4>
  util.global private @cst_246 = #util.byte_pattern<84> : tensor<4096x32x1xf16>
  util.global private @cst_549 = #util.byte_pattern<85> : tensor<11008x32x1xf16>
  util.global private @cst_406 = #util.byte_pattern<86> : tensor<4096x86x1xf16>
  util.global private @cst_586 = #util.byte_pattern<87> : tensor<4096x32x1xf16>
  util.global private @cst_247 = #util.byte_pattern<88> : tensor<4096x32x1xf16>
  util.global private @cst_542 = #util.byte_pattern<89> : tensor<4096x32x1xf16>
  util.global private @cst_114 = #util.byte_pattern<90> : tensor<4096x4096xi4>
  util.global private @cst_214 = #util.byte_pattern<91> : tensor<4096x4096xi4>
  util.global private @cst_339 = #util.byte_pattern<92> : tensor<11008x32x1xf16>
  util.global private @cst_725 = #util.byte_pattern<93> : tensor<4096xf16>
  util.global private @cst_623 = #util.byte_pattern<94> : tensor<4096x32x1xf16>
  util.global private @cst_271 = #util.byte_pattern<95> : tensor<4096x32x1xf16>
  util.global private @cst_215 = #util.byte_pattern<96> : tensor<4096x4096xi4>
  util.global private @cst_423 = #util.byte_pattern<97> : tensor<11008x32x1xf16>
  util.global private @cst_518 = #util.byte_pattern<98> : tensor<4096x86x1xf16>
  util.global private @cst_566 = #util.byte_pattern<99> : tensor<4096x32x1xf16>
  util.global private @cst_478 = #util.byte_pattern<100> : tensor<11008x32x1xf16>
  util.global private @cst_529 = #util.byte_pattern<101> : tensor<4096x32x1xf16>
  util.global private @cst_719 = #util.byte_pattern<102> : tensor<4096xf16>
  util.global private @cst_309 = #util.byte_pattern<103> : tensor<11008x32x1xf16>
  util.global private @cst_306 = #util.byte_pattern<104> : tensor<4096x32x1xf16>
  util.global private @cst_17 = #util.byte_pattern<105> : tensor<4096x4096xi4>
  util.global private @cst_748 = 4.096000e+03 : f32
  util.global private @cst_70 = #util.byte_pattern<106> : tensor<11008x4096xi4>
  util.global private @cst_709 = #util.byte_pattern<107> : tensor<4096xf16>
  util.global private @cst_509 = #util.byte_pattern<108> : tensor<4096x32x1xf16>
  util.global private @cst_136 = #util.byte_pattern<109> : tensor<4096x4096xi4>
  util.global private @cst_680 = #util.byte_pattern<110> : tensor<4096xf16>
  util.global private @cst_263 = #util.byte_pattern<111> : tensor<4096x32x1xf16>
  util.global private @cst_477 = #util.byte_pattern<112> : tensor<11008x32x1xf16>
  util.global private @cst_676 = #util.byte_pattern<113> : tensor<4096xf16>
  util.global private @cst_289 = #util.byte_pattern<114> : tensor<4096x32x1xf16>
  util.global private @cst_340 = #util.byte_pattern<115> : tensor<11008x32x1xf16>
  util.global private @cst_447 = #util.byte_pattern<116> : tensor<4096x86x1xf16>
  util.global private @cst_520 = #util.byte_pattern<117> : tensor<11008x32x1xf16>
  util.global private @cst_348 = #util.byte_pattern<118> : tensor<4096x32x1xf16>
  util.global private @cst_651 = #util.byte_pattern<119> : tensor<4096x32x1xf16>
  util.global private @cst_188 = #util.byte_pattern<120> : tensor<4096x11008xi4>
  util.global private @cst_104 = #util.byte_pattern<121> : tensor<4096x11008xi4>
  util.global private @cst_457 = #util.byte_pattern<122> : tensor<4096x32x1xf16>
  util.global private @c19 = 19 : index
  util.global private @cst_184 = #util.byte_pattern<123> : tensor<4096x4096xi4>
  util.global private @cst_296 = #util.byte_pattern<124> : tensor<11008x32x1xf16>
  util.global private @cst_629 = #util.byte_pattern<125> : tensor<4096x86x1xf16>
  util.global private @cst_668 = #util.byte_pattern<126> : tensor<4096x32x1xf16>
  util.global private @cst_589 = #util.byte_pattern<127> : tensor<11008x32x1xf16>
  util.global private @cst_167 = #util.byte_pattern<128> : tensor<4096x11008xi4>
  util.global private @cst_66 = #util.byte_pattern<129> : tensor<4096x4096xi4>
  util.global private @cst_149 = #util.byte_pattern<130> : tensor<4096x4096xi4>
  util.global private @cst_146 = #util.byte_pattern<131> : tensor<4096x11008xi4>
  util.global private @cst_156 = #util.byte_pattern<132> : tensor<4096x4096xi4>
  util.global private @cst_336 = #util.byte_pattern<133> : tensor<4096x86x1xf16>
  util.global private @cst_242 = #util.byte_pattern<134> : tensor<11008x32x1xf16>
  util.global private @cst_358 = #util.byte_pattern<135> : tensor<4096x32x1xf16>
  util.global private @cst_227 = #util.byte_pattern<136> : tensor<11008x32x1xf16>
  util.global private @cst_605 = #util.byte_pattern<137> : tensor<11008x32x1xf16>
  util.global private @cst_236 = #util.byte_pattern<138> : tensor<4096x32x1xf16>
  util.global private @cst_102 = #util.byte_pattern<139> : tensor<4096x4096xi4>
  util.global private @cst_610 = #util.byte_pattern<140> : tensor<4096x32x1xf16>
  util.global private @cst_697 = #util.byte_pattern<141> : tensor<4096xf16>
  util.global private @cst_677 = #util.byte_pattern<142> : tensor<4096xf16>
  util.global private @cst_59 = #util.byte_pattern<143> : tensor<4096x4096xi4>
  util.global private @cst_8 = #util.byte_pattern<144> : tensor<11008x4096xi4>
  util.global private @cst_398 = #util.byte_pattern<145> : tensor<4096x32x1xf16>
  util.global private @cst_608 = #util.byte_pattern<146> : tensor<4096x32x1xf16>
  util.global private @cst_161 = #util.byte_pattern<147> : tensor<11008x4096xi4>
  util.global private @cst_33 = #util.byte_pattern<148> : tensor<4096x4096xi4>
  util.global private @cst_313 = #util.byte_pattern<149> : tensor<4096x32x1xf16>
  util.global private @cst_364 = #util.byte_pattern<150> : tensor<4096x86x1xf16>
  util.global private @cst_519 = #util.byte_pattern<151> : tensor<11008x32x1xf16>
  util.global private @cst_647 = #util.byte_pattern<152> : tensor<11008x32x1xf16>
  util.global private @cst_650 = #util.byte_pattern<153> : tensor<4096x32x1xf16>
  util.global private @cst_596 = #util.byte_pattern<154> : tensor<4096x32x1xf16>
  util.global private @cst_321 = #util.byte_pattern<155> : tensor<4096x86x1xf16>
  util.global private @cst_64 = #util.byte_pattern<156> : tensor<11008x4096xi4>
  util.global private @c1_i64 = 1 : i64
  util.global private @cst_626 = #util.byte_pattern<157> : tensor<4096x32x1xf16>
  util.global private @cst_493 = #util.byte_pattern<158> : tensor<11008x32x1xf16>
  util.global private @cst_699 = #util.byte_pattern<159> : tensor<4096xf16>
  util.global private @c1 = 1 : index
  util.global private @cst_551 = #util.byte_pattern<160> : tensor<4096x32x1xf16>
  util.global private @cst_284 = #util.byte_pattern<161> : tensor<11008x32x1xf16>
  util.global private @cst_413 = #util.byte_pattern<162> : tensor<4096x32x1xf16>
  util.global private @cst_441 = #util.byte_pattern<163> : tensor<4096x32x1xf16>
  util.global private @cst_87 = #util.byte_pattern<164> : tensor<4096x4096xi4>
  util.global private @cst_708 = #util.byte_pattern<165> : tensor<4096xf16>
  util.global private @cst_121 = #util.byte_pattern<166> : tensor<4096x4096xi4>
  util.global private @cst_390 = #util.byte_pattern<167> : tensor<4096x32x1xf16>
  util.global private @cst_379 = #util.byte_pattern<168> : tensor<11008x32x1xf16>
  util.global private @cst_19 = #util.byte_pattern<169> : tensor<4096x4096xi4>
  util.global private @cst_290 = #util.byte_pattern<170> : tensor<4096x32x1xf16>
  util.global private @cst_468 = #util.byte_pattern<171> : tensor<4096x32x1xf16>
  util.global private @cst_103 = #util.byte_pattern<172> : tensor<4096x4096xi4>
  util.global private @cst_454 = #util.byte_pattern<173> : tensor<4096x32x1xf16>
  util.global private @cst_577 = #util.byte_pattern<174> : tensor<11008x32x1xf16>
  util.global private @cst_424 = #util.byte_pattern<175> : tensor<11008x32x1xf16>
  util.global private @cst_747 = 2.000000e+00 : f32
  util.global private @cst_221 = #util.byte_pattern<176> : tensor<4096x4096xi4>
  util.global private @cst_265 = #util.byte_pattern<177> : tensor<4096x86x1xf16>
  util.global private @c2 = 2 : index
  util.global private @cst_722 = #util.byte_pattern<178> : tensor<4096xf16>
  util.global private @cst_151 = #util.byte_pattern<179> : tensor<4096x4096xi4>
  util.global private @cst_613 = #util.byte_pattern<180> : tensor<4096x32x1xf16>
  util.global private @cst_35 = #util.byte_pattern<181> : tensor<11008x4096xi4>
  util.global private @cst_606 = #util.byte_pattern<182> : tensor<11008x32x1xf16>
  util.global private @cst_663 = #util.byte_pattern<183> : tensor<4096x32x1xf16>
  util.global private @cst_158 = #util.byte_pattern<184> : tensor<4096x4096xi4>
  util.global private @cst_479 = #util.byte_pattern<185> : tensor<11008x32x1xf16>
  util.global private @cst_491 = #util.byte_pattern<186> : tensor<11008x32x1xf16>
  util.global private @cst_392 = #util.byte_pattern<187> : tensor<4096x86x1xf16>
  util.global private @cst_420 = #util.byte_pattern<188> : tensor<4096x86x1xf16>
  util.global private @cst_288 = #util.byte_pattern<189> : tensor<4096x32x1xf16>
  util.global private @cst_222 = #util.byte_pattern<190> : tensor<4096x4096xi4>
  util.global private @cst_85 = #util.byte_pattern<191> : tensor<11008x4096xi4>
  util.global private @cst_207 = #util.byte_pattern<192> : tensor<4096x4096xi4>
  util.global private @cst_621 = #util.byte_pattern<193> : tensor<4096x32x1xf16>
  util.global private @cst_733 = #util.byte_pattern<194> : tensor<4096xf16>
  util.global private @cst_259 = #util.byte_pattern<195> : tensor<4096x32x1xf16>
  util.global private @cst_718 = #util.byte_pattern<196> : tensor<4096xf16>
  util.global private @cst_396 = #util.byte_pattern<197> : tensor<11008x32x1xf16>
  util.global private @cst_600 = #util.byte_pattern<198> : tensor<4096x32x1xf16>
  util.global private @cst_178 = #util.byte_pattern<199> : tensor<4096x4096xi4>
  util.global private @cst_342 = #util.byte_pattern<200> : tensor<4096x32x1xf16>
  util.global private @cst_591 = #util.byte_pattern<201> : tensor<11008x32x1xf16>
  util.global private @cst_746 = 11.313708498984761 : f64
  util.global private @cst_281 = #util.byte_pattern<202> : tensor<11008x32x1xf16>
  util.global private @cst_16 = #util.byte_pattern<203> : tensor<4096x4096xi4>
  util.global private @cst_688 = #util.byte_pattern<204> : tensor<4096xf16>
  util.global private @cst_476 = #util.byte_pattern<205> : tensor<4096x86x1xf16>
  util.global private @cst_394 = #util.byte_pattern<206> : tensor<11008x32x1xf16>
  util.global private @cst_521 = #util.byte_pattern<207> : tensor<11008x32x1xf16>
  util.global private @c19_i64 = 19 : i64
  util.global private @cst_14 = #util.byte_pattern<208> : tensor<11008x4096xi4>
  util.global private @cst_458 = #util.byte_pattern<209> : tensor<4096x32x1xf16>
  util.global private @cst_679 = #util.byte_pattern<210> : tensor<4096xf16>
  util.global private @cst_164 = #util.byte_pattern<211> : tensor<4096x4096xi4>
  util.global private @cst_739 = #util.byte_pattern<212> : tensor<32000x4096xf16>
  util.global private @cst_735 = #util.byte_pattern<213> : tensor<4096xf16>
  util.global private @cst_483 = #util.byte_pattern<214> : tensor<4096x32x1xf16>
  util.global private @cst_26 = #util.byte_pattern<215> : tensor<4096x4096xi4>
  util.global private @cst_593 = #util.byte_pattern<216> : tensor<4096x32x1xf16>
  util.global private @cst_407 = #util.byte_pattern<217> : tensor<11008x32x1xf16>
  util.global private @cst_384 = #util.byte_pattern<218> : tensor<4096x32x1xf16>
  util.global private @cst_344 = #util.byte_pattern<219> : tensor<4096x32x1xf16>
  util.global private @cst_7 = #util.byte_pattern<220> : tensor<11008x4096xi4>
  util.global private @cst_563 = #util.byte_pattern<221> : tensor<11008x32x1xf16>
  util.global private @cst_616 = #util.byte_pattern<222> : tensor<4096x86x1xf16>
  util.global private @cst_499 = #util.byte_pattern<223> : tensor<4096x32x1xf16>
  util.global private @cst_403 = #util.byte_pattern<224> : tensor<4096x32x1xf16>
  util.global private @cst_110 = #util.byte_pattern<225> : tensor<4096x4096xi4>
  util.global private @cst_141 = #util.byte_pattern<226> : tensor<11008x4096xi4>
  util.global private @cst_168 = #util.byte_pattern<227> : tensor<11008x4096xi4>
  util.global private @cst_345 = #util.byte_pattern<228> : tensor<4096x32x1xf16>
  util.global private @cst_506 = #util.byte_pattern<229> : tensor<11008x32x1xf16>
  util.global private @cst_544 = #util.byte_pattern<230> : tensor<4096x32x1xf16>
  util.global private @cst_243 = #util.byte_pattern<231> : tensor<4096x32x1xf16>
  util.global private @cst_690 = #util.byte_pattern<232> : tensor<4096xf16>
  util.global private @cst_507 = #util.byte_pattern<233> : tensor<11008x32x1xf16>
  util.global private @cst_95 = #util.byte_pattern<234> : tensor<4096x4096xi4>
  util.global private @cst_125 = #util.byte_pattern<235> : tensor<4096x11008xi4>
  util.global private @cst_716 = #util.byte_pattern<236> : tensor<4096xf16>
  util.global private @cst_36 = #util.byte_pattern<237> : tensor<11008x4096xi4>
  util.global private @cst_15 = #util.byte_pattern<238> : tensor<11008x4096xi4>
  util.global private @cst_260 = #util.byte_pattern<239> : tensor<4096x32x1xf16>
  util.global private @cst_225 = #util.byte_pattern<240> : tensor<11008x32x1xf16>
  util.global private @cst_555 = #util.byte_pattern<241> : tensor<4096x32x1xf16>
  util.global private @cst_678 = #util.byte_pattern<242> : tensor<4096xf16>
  util.global private @cst_152 = #util.byte_pattern<243> : tensor<4096x4096xi4>
  util.global private @cst_275 = #util.byte_pattern<244> : tensor<4096x32x1xf16>
  util.global private @cst_692 = #util.byte_pattern<245> : tensor<4096xf16>
  util.global private @cst_724 = #util.byte_pattern<246> : tensor<4096xf16>
  util.global private @cst_177 = #util.byte_pattern<247> : tensor<4096x4096xi4>
  util.global private @cst_734 = #util.byte_pattern<248> : tensor<4096xf16>
  util.global private @cst_175 = #util.byte_pattern<249> : tensor<11008x4096xi4>
  util.global private @cst_145 = #util.byte_pattern<250> : tensor<4096x4096xi4>
  util.global private @cst_552 = #util.byte_pattern<251> : tensor<4096x32x1xf16>
  util.global private @cst_182 = #util.byte_pattern<252> : tensor<11008x4096xi4>
  util.global private @cst_523 = #util.byte_pattern<253> : tensor<4096x32x1xf16>
  util.global private @cst_444 = #util.byte_pattern<254> : tensor<4096x32x1xf16>
  util.global private @cst_180 = #util.byte_pattern<255> : tensor<4096x4096xi4>
  util.global private @cst_464 = #util.byte_pattern<256> : tensor<11008x32x1xf16>
  util.global private @cst_119 = #util.byte_pattern<257> : tensor<11008x4096xi4>
  util.global private @cst_235 = #util.byte_pattern<258> : tensor<4096x32x1xf16>
  util.global private @cst_360 = #util.byte_pattern<259> : tensor<4096x32x1xf16>
  util.global private @cst_196 = #util.byte_pattern<260> : tensor<11008x4096xi4>
  util.global private @cst_597 = #util.byte_pattern<261> : tensor<4096x32x1xf16>
  util.global private @cst_579 = #util.byte_pattern<262> : tensor<4096x32x1xf16>
  util.global private @c0_i64 = 0 : i64
  util.global private @cst_23 = #util.byte_pattern<263> : tensor<4096x4096xi4>
  util.global private @cst_169 = #util.byte_pattern<264> : tensor<11008x4096xi4>
  util.global private @cst_267 = #util.byte_pattern<265> : tensor<11008x32x1xf16>
  util.global private @cst_192 = #util.byte_pattern<266> : tensor<4096x4096xi4>
  util.global private @cst_717 = #util.byte_pattern<267> : tensor<4096xf16>
  util.global private @cst_485 = #util.byte_pattern<268> : tensor<4096x32x1xf16>
  util.global private @cst_442 = #util.byte_pattern<269> : tensor<4096x32x1xf16>
  util.global private @cst_208 = #util.byte_pattern<270> : tensor<4096x4096xi4>
  util.global private @cst_163 = #util.byte_pattern<271> : tensor<4096x4096xi4>
  util.global private @cst_439 = #util.byte_pattern<272> : tensor<4096x32x1xf16>
  util.global private @cst_620 = #util.byte_pattern<273> : tensor<11008x32x1xf16>
  util.global private @cst_324 = #util.byte_pattern<274> : tensor<11008x32x1xf16>
  util.global private @cst_532 = #util.byte_pattern<275> : tensor<4096x86x1xf16>
  util.global private @cst_315 = #util.byte_pattern<276> : tensor<4096x32x1xf16>
  util.global private @cst_157 = #util.byte_pattern<277> : tensor<4096x4096xi4>
  util.global private @cst_513 = #util.byte_pattern<278> : tensor<4096x32x1xf16>
  util.global private @cst_318 = #util.byte_pattern<279> : tensor<4096x32x1xf16>
  util.global private @cst_581 = #util.byte_pattern<280> : tensor<4096x32x1xf16>
  util.global private @cst_224 = #util.byte_pattern<281> : tensor<4096x86x1xf16>
  util.global private @cst_453 = #util.byte_pattern<282> : tensor<4096x32x1xf16>
  util.global private @cst_77 = #util.byte_pattern<283> : tensor<11008x4096xi4>
  util.global private @cst_72 = #util.byte_pattern<284> : tensor<4096x4096xi4>
  util.global private @cst_282 = #util.byte_pattern<285> : tensor<11008x32x1xf16>
  util.global private @cst_553 = #util.byte_pattern<286> : tensor<4096x32x1xf16>
  util.global private @cst_257 = #util.byte_pattern<287> : tensor<4096x32x1xf16>
  util.global private @cst_535 = #util.byte_pattern<288> : tensor<11008x32x1xf16>
  util.global private @cst_187 = #util.byte_pattern<289> : tensor<4096x4096xi4>
  util.global private @cst_673 = #util.byte_pattern<290> : tensor<4096xf16>
  util.global private @cst_128 = #util.byte_pattern<291> : tensor<4096x4096xi4>
  util.global private @cst_486 = #util.byte_pattern<292> : tensor<4096x32x1xf16>
  util.global private @cst_736 = #util.byte_pattern<293> : tensor<1x1x4096x128xf16>
  util.global private @cst_131 = #util.byte_pattern<294> : tensor<4096x4096xi4>
  util.global private @cst_171 = #util.byte_pattern<295> : tensor<4096x4096xi4>
  util.global private @cst_533 = #util.byte_pattern<296> : tensor<11008x32x1xf16>
  util.global private @cst_189 = #util.byte_pattern<297> : tensor<11008x4096xi4>
  util.global private @cst_615 = #util.byte_pattern<298> : tensor<4096x86x1xf16>
  util.global private @cst_118 = #util.byte_pattern<299> : tensor<4096x11008xi4>
  util.global private @cst_329 = #util.byte_pattern<300> : tensor<4096x32x1xf16>
  util.global private @cst_232 = #util.byte_pattern<301> : tensor<4096x32x1xf16>
  util.global private @cst_388 = #util.byte_pattern<302> : tensor<4096x32x1xf16>
  util.global private @cst_704 = #util.byte_pattern<303> : tensor<4096xf16>
  util.global private @cst_410 = #util.byte_pattern<304> : tensor<11008x32x1xf16>
  util.global private @cst_425 = #util.byte_pattern<305> : tensor<4096x32x1xf16>
  util.global private @cst_238 = #util.byte_pattern<306> : tensor<4096x86x1xf16>
  util.global private @cst_539 = #util.byte_pattern<307> : tensor<4096x32x1xf16>
  util.global private @cst_327 = #util.byte_pattern<308> : tensor<4096x32x1xf16>
  util.global private @cst_638 = #util.byte_pattern<309> : tensor<4096x32x1xf16>
  util.global private @cst_27 = #util.byte_pattern<310> : tensor<4096x11008xi4>
  util.global private @cst_362 = #util.byte_pattern<311> : tensor<4096x32x1xf16>
  util.global private @cst_249 = #util.byte_pattern<312> : tensor<4096x32x1xf16>
  util.global private @cst_106 = #util.byte_pattern<313> : tensor<11008x4096xi4>
  util.global private @cst_698 = #util.byte_pattern<314> : tensor<4096xf16>
  util.global private @cst_298 = #util.byte_pattern<315> : tensor<11008x32x1xf16>
  util.global private @cst_434 = #util.byte_pattern<316> : tensor<4096x86x1xf16>
  util.global private @cst_381 = #util.byte_pattern<317> : tensor<11008x32x1xf16>
  util.global private @cst_496 = #util.byte_pattern<318> : tensor<4096x32x1xf16>
  util.global private @cst_494 = #util.byte_pattern<319> : tensor<11008x32x1xf16>
  util.global private @cst_143 = #util.byte_pattern<320> : tensor<4096x4096xi4>
  util.global private @cst_69 = #util.byte_pattern<321> : tensor<4096x11008xi4>
  util.global private @cst_645 = #util.byte_pattern<322> : tensor<11008x32x1xf16>
  util.global private @cst_720 = #util.byte_pattern<323> : tensor<4096xf16>
  util.global private @cst_305 = #util.byte_pattern<324> : tensor<4096x32x1xf16>
  util.global private @cst_50 = #util.byte_pattern<325> : tensor<11008x4096xi4>
  util.global private @cst_526 = #util.byte_pattern<326> : tensor<4096x32x1xf16>
  util.global private @cst_669 = #util.byte_pattern<327> : tensor<4096x32x1xf16>
  util.global private @cst_97 = #util.byte_pattern<328> : tensor<4096x11008xi4>
  util.global private @cst_568 = #util.byte_pattern<329> : tensor<4096x32x1xf16>
  util.global private @cst_576 = #util.byte_pattern<330> : tensor<11008x32x1xf16>
  util.global private @cst_6 = #util.byte_pattern<331> : tensor<4096x11008xi4>
  util.global private @cst_625 = #util.byte_pattern<332> : tensor<4096x32x1xf16>
  util.global private @cst_210 = #util.byte_pattern<333> : tensor<11008x4096xi4>
  util.global private @cst_500 = #util.byte_pattern<334> : tensor<4096x32x1xf16>
  util.global private @cst_662 = #util.byte_pattern<335> : tensor<11008x32x1xf16>
  util.global private @cst_590 = #util.byte_pattern<336> : tensor<11008x32x1xf16>
  util.global private @cst_198 = #util.byte_pattern<337> : tensor<4096x4096xi4>
  util.global private @cst_172 = #util.byte_pattern<338> : tensor<4096x4096xi4>
  util.global private @cst_10 = #util.byte_pattern<339> : tensor<4096x4096xi4>
  util.global private @cst_111 = #util.byte_pattern<340> : tensor<4096x11008xi4>
  util.global private @cst_205 = #util.byte_pattern<341> : tensor<4096x4096xi4>
  util.global private @cst_594 = #util.byte_pattern<342> : tensor<4096x32x1xf16>
  util.global private @cst_386 = #util.byte_pattern<343> : tensor<4096x32x1xf16>
  util.global private @cst_272 = #util.byte_pattern<344> : tensor<4096x32x1xf16>
  util.global private @cst_598 = #util.byte_pattern<345> : tensor<4096x32x1xf16>
  util.global private @cst_283 = #util.byte_pattern<346> : tensor<11008x32x1xf16>
  util.global private @cst_488 = #util.byte_pattern<347> : tensor<4096x32x1xf16>
  util.global private @cst_20 = #util.byte_pattern<348> : tensor<4096x11008xi4>
  util.global private @cst_316 = #util.byte_pattern<349> : tensor<4096x32x1xf16>
  util.global private @cst_611 = #util.byte_pattern<350> : tensor<4096x32x1xf16>
  util.global private @cst_212 = #util.byte_pattern<351> : tensor<4096x4096xi4>
  util.global private @true = true
  util.global private @cst_333 = #util.byte_pattern<352> : tensor<4096x32x1xf16>
  util.global private @cst_738 = #util.byte_pattern<353> : tensor<4096xf16>
  util.global private @cst_400 = #util.byte_pattern<354> : tensor<4096x32x1xf16>
  util.global private @cst_560 = #util.byte_pattern<355> : tensor<4096x86x1xf16>
  util.global private @cst_684 = #util.byte_pattern<356> : tensor<4096xf16>
  util.global private @cst_179 = #util.byte_pattern<357> : tensor<4096x4096xi4>
  util.global private @cst_528 = #util.byte_pattern<358> : tensor<4096x32x1xf16>
  util.global private @cst_268 = #util.byte_pattern<359> : tensor<11008x32x1xf16>
  util.global private @cst_90 = #util.byte_pattern<360> : tensor<4096x11008xi4>
  util.global private @cst_654 = #util.byte_pattern<361> : tensor<4096x32x1xf16>
  util.global private @cst_269 = #util.byte_pattern<362> : tensor<11008x32x1xf16>
  util.global private @cst_186 = #util.byte_pattern<363> : tensor<4096x4096xi4>
  util.global private @cst_463 = #util.byte_pattern<364> : tensor<11008x32x1xf16>
  util.global private @cst_515 = #util.byte_pattern<365> : tensor<4096x32x1xf16>
  util.global private @cst_43 = #util.byte_pattern<366> : tensor<11008x4096xi4>
  util.global private @cst_416 = #util.byte_pattern<367> : tensor<4096x32x1xf16>
  util.global private @cst_174 = #util.byte_pattern<368> : tensor<4096x11008xi4>
  util.global private @cst_633 = #util.byte_pattern<369> : tensor<11008x32x1xf16>
  util.global private @cst_22 = #util.byte_pattern<370> : tensor<11008x4096xi4>
  util.global private @cst_450 = #util.byte_pattern<371> : tensor<11008x32x1xf16>
  util.global private @cst_92 = #util.byte_pattern<372> : tensor<11008x4096xi4>
  util.global private @cst_522 = #util.byte_pattern<373> : tensor<11008x32x1xf16>
  util.global private @cst_0 = #util.byte_pattern<374> : tensor<11008x4096xi4>
  util.global private @cst_38 = #util.byte_pattern<375> : tensor<4096x4096xi4>
  util.global private @cst_341 = #util.byte_pattern<376> : tensor<4096x32x1xf16>
  util.global private @cst_492 = #util.byte_pattern<377> : tensor<11008x32x1xf16>
  util.global private @cst_270 = #util.byte_pattern<378> : tensor<11008x32x1xf16>
  util.global private @cst_82 = #util.byte_pattern<379> : tensor<4096x4096xi4>
  util.global private @cst_652 = #util.byte_pattern<380> : tensor<4096x32x1xf16>
  util.global private @cst_399 = #util.byte_pattern<381> : tensor<4096x32x1xf16>
  util.global private @cst_711 = #util.byte_pattern<382> : tensor<4096xf16>
  util.global private @cst_374 = #util.byte_pattern<383> : tensor<4096x32x1xf16>
  util.global private @cst_11 = #util.byte_pattern<384> : tensor<4096x4096xi4>
  util.global private @cst_418 = #util.byte_pattern<385> : tensor<4096x32x1xf16>
  util.global private @cst_355 = #util.byte_pattern<386> : tensor<4096x32x1xf16>
  util.global private @cst_508 = #util.byte_pattern<387> : tensor<11008x32x1xf16>
  util.global private @cst_547 = #util.byte_pattern<388> : tensor<11008x32x1xf16>
  util.global private @cst_202 = #util.byte_pattern<389> : tensor<4096x11008xi4>
  util.global private @cst_28 = #util.byte_pattern<390> : tensor<11008x4096xi4>
  util.global private @cst_34 = #util.byte_pattern<391> : tensor<4096x11008xi4>
  util.global private @cst_481 = #util.byte_pattern<392> : tensor<4096x32x1xf16>
  util.global private @cst_122 = #util.byte_pattern<393> : tensor<4096x4096xi4>
  util.global private @cst_84 = #util.byte_pattern<394> : tensor<11008x4096xi4>
  util.global private @cst_47 = #util.byte_pattern<395> : tensor<4096x4096xi4>
  util.global private @cst_108 = #util.byte_pattern<396> : tensor<4096x4096xi4>
  util.global private @cst_531 = #util.byte_pattern<397> : tensor<4096x86x1xf16>
  util.global private @cst_40 = #util.byte_pattern<398> : tensor<4096x4096xi4>
  util.global private @cst_351 = #util.byte_pattern<399> : tensor<11008x32x1xf16>
  util.global private @cst_74 = #util.byte_pattern<400> : tensor<4096x4096xi4>
  util.global private @cst_380 = #util.byte_pattern<401> : tensor<11008x32x1xf16>
  util.global private @cst_307 = #util.byte_pattern<402> : tensor<4096x86x1xf16>
  util.global private @cst_382 = #util.byte_pattern<403> : tensor<11008x32x1xf16>
  util.global private @cst_675 = #util.byte_pattern<404> : tensor<4096xf16>
  util.global private @cst_277 = #util.byte_pattern<405> : tensor<4096x32x1xf16>
  util.global private @cst_534 = #util.byte_pattern<406> : tensor<11008x32x1xf16>
  util.global private @cst_729 = #util.byte_pattern<407> : tensor<4096xf16>
  util.global private @cst_368 = #util.byte_pattern<408> : tensor<11008x32x1xf16>
  util.global private @cst_116 = #util.byte_pattern<409> : tensor<4096x4096xi4>
  util.global private @cst_195 = #util.byte_pattern<410> : tensor<4096x11008xi4>
  util.global private @cst_21 = #util.byte_pattern<411> : tensor<11008x4096xi4>
  util.global private @cst_89 = #util.byte_pattern<412> : tensor<4096x4096xi4>
  util.global private @cst_194 = #util.byte_pattern<413> : tensor<4096x4096xi4>
  util.global private @cst_363 = #util.byte_pattern<414> : tensor<4096x86x1xf16>
  util.global private @cst_607 = #util.byte_pattern<415> : tensor<4096x32x1xf16>
  util.global private @cst_361 = #util.byte_pattern<416> : tensor<4096x32x1xf16>
  util.global private @cst_332 = #util.byte_pattern<417> : tensor<4096x32x1xf16>
  util.global private @cst_295 = #util.byte_pattern<418> : tensor<11008x32x1xf16>
  util.global private @cst_323 = #util.byte_pattern<419> : tensor<11008x32x1xf16>
  util.global private @cst_517 = #util.byte_pattern<420> : tensor<4096x86x1xf16>
  util.global private @cst_628 = #util.byte_pattern<421> : tensor<4096x32x1xf16>
  util.global private @cst_637 = #util.byte_pattern<422> : tensor<4096x32x1xf16>
  util.global private @cst_325 = #util.byte_pattern<423> : tensor<11008x32x1xf16>
  util.global private @cst_129 = #util.byte_pattern<424> : tensor<4096x4096xi4>
  util.global private @cst_657 = #util.byte_pattern<425> : tensor<4096x86x1xf16>
  util.global private @cst_68 = #util.byte_pattern<426> : tensor<4096x4096xi4>
  util.global private @cst_343 = #util.byte_pattern<427> : tensor<4096x32x1xf16>
  util.global private @cst_258 = #util.byte_pattern<428> : tensor<4096x32x1xf16>
  util.global private @cst_113 = #util.byte_pattern<429> : tensor<11008x4096xi4>
  util.global private @cst_504 = #util.byte_pattern<430> : tensor<4096x86x1xf16>
  util.global private @cst_51 = #util.byte_pattern<431> : tensor<4096x4096xi4>
  util.global private @cst_409 = #util.byte_pattern<432> : tensor<11008x32x1xf16>
  util.global private @cst_150 = #util.byte_pattern<433> : tensor<4096x4096xi4>
  util.global private @cst_427 = #util.byte_pattern<434> : tensor<4096x32x1xf16>
  util.global private @cst_726 = #util.byte_pattern<435> : tensor<4096xf16>
  util.global private @cst_334 = #util.byte_pattern<436> : tensor<4096x32x1xf16>
  util.global private @cst_730 = #util.byte_pattern<437> : tensor<4096xf16>
  util.global private @cst_39 = #util.byte_pattern<438> : tensor<4096x4096xi4>
  util.global private @cst_79 = #util.byte_pattern<439> : tensor<4096x4096xi4>
  util.global private @cst_462 = #util.byte_pattern<440> : tensor<4096x86x1xf16>
  util.global private @cst_538 = #util.byte_pattern<441> : tensor<4096x32x1xf16>
  util.global private @cst_250 = #util.byte_pattern<442> : tensor<4096x32x1xf16>
  util.global private @cst_322 = #util.byte_pattern<443> : tensor<4096x86x1xf16>
  util.global private @cst_130 = #util.byte_pattern<444> : tensor<4096x4096xi4>
  util.global private @cst_134 = #util.byte_pattern<445> : tensor<11008x4096xi4>
  util.global private @cst_543 = #util.byte_pattern<446> : tensor<4096x32x1xf16>
  util.global private @cst_53 = #util.byte_pattern<447> : tensor<4096x4096xi4>
  util.global private @cst_13 = #util.byte_pattern<448> : tensor<4096x11008xi4>
  util.global private @cst_604 = #util.byte_pattern<449> : tensor<11008x32x1xf16>
  util.global private @cst_155 = #util.byte_pattern<450> : tensor<11008x4096xi4>
  util.global private @cst_426 = #util.byte_pattern<451> : tensor<4096x32x1xf16>
  util.global private @cst_140 = #util.byte_pattern<452> : tensor<11008x4096xi4>
  util.global private @cst_414 = #util.byte_pattern<453> : tensor<4096x32x1xf16>
  util.global private @cst_505 = #util.byte_pattern<454> : tensor<11008x32x1xf16>
  util.global private @cst_287 = #util.byte_pattern<455> : tensor<4096x32x1xf16>
  util.global private @cst_42 = #util.byte_pattern<456> : tensor<11008x4096xi4>
  util.global private @cst_366 = #util.byte_pattern<457> : tensor<11008x32x1xf16>
  util.global private @cst_480 = #util.byte_pattern<458> : tensor<11008x32x1xf16>
  util.global private @cst_81 = #util.byte_pattern<459> : tensor<4096x4096xi4>
  util.global private @cst_137 = #util.byte_pattern<460> : tensor<4096x4096xi4>
  util.global private @cst_408 = #util.byte_pattern<461> : tensor<11008x32x1xf16>
  util.global private @cst_147 = #util.byte_pattern<462> : tensor<11008x4096xi4>
  util.global private @cst_209 = #util.byte_pattern<463> : tensor<4096x11008xi4>
  util.global private @cst_37 = #util.byte_pattern<464> : tensor<4096x4096xi4>
  util.global private @cst_567 = #util.byte_pattern<465> : tensor<4096x32x1xf16>
  util.global private @cst_658 = #util.byte_pattern<466> : tensor<4096x86x1xf16>
  util.global private @cst_411 = #util.byte_pattern<467> : tensor<4096x32x1xf16>
  util.global private @cst_206 = #util.byte_pattern<468> : tensor<4096x4096xi4>
  util.global private @cst_80 = #util.byte_pattern<469> : tensor<4096x4096xi4>
  util.global private @cst_614 = #util.byte_pattern<470> : tensor<4096x32x1xf16>
  util.global private @cst_700 = #util.byte_pattern<471> : tensor<4096xf16>
  util.global private @cst_204 = #util.byte_pattern<472> : tensor<11008x4096xi4>
  util.global private @cst_588 = #util.byte_pattern<473> : tensor<4096x86x1xf16>
  util.global private @cst_371 = #util.byte_pattern<474> : tensor<4096x32x1xf16>
  util.global private @cst_230 = #util.byte_pattern<475> : tensor<4096x32x1xf16>
  util.global private @cst_62 = #util.byte_pattern<476> : tensor<4096x11008xi4>
  util.global private @cst_142 = #util.byte_pattern<477> : tensor<4096x4096xi4>
  util.global private @cst_292 = #util.byte_pattern<478> : tensor<4096x32x1xf16>
  util.global private @cst_88 = #util.byte_pattern<479> : tensor<4096x4096xi4>
  util.global private @cst_473 = #util.byte_pattern<480> : tensor<4096x32x1xf16>
  util.global private @cst_387 = #util.byte_pattern<481> : tensor<4096x32x1xf16>
  util.global private @cst_742 = 0xFC00 : f16
  util.global private @cst_578 = #util.byte_pattern<482> : tensor<11008x32x1xf16>
  util.global private @cst_83 = #util.byte_pattern<483> : tensor<4096x11008xi4>
  util.global private @cst_154 = #util.byte_pattern<484> : tensor<11008x4096xi4>
  util.global private @cst_197 = #util.byte_pattern<485> : tensor<11008x4096xi4>
  util.global private @cst_525 = #util.byte_pattern<486> : tensor<4096x32x1xf16>
  util.global private @cst_640 = #util.byte_pattern<487> : tensor<4096x32x1xf16>
  util.global private @cst_299 = #util.byte_pattern<488> : tensor<4096x32x1xf16>
  util.global private @cst_100 = #util.byte_pattern<489> : tensor<4096x4096xi4>
  util.global private @cst_144 = #util.byte_pattern<490> : tensor<4096x4096xi4>
  util.global private @cst_354 = #util.byte_pattern<491> : tensor<11008x32x1xf16>
  util.global private @cst_689 = #util.byte_pattern<492> : tensor<4096xf16>
  util.global private @cst_732 = #util.byte_pattern<493> : tensor<4096xf16>
  util.global private @cst_226 = #util.byte_pattern<494> : tensor<11008x32x1xf16>
  util.global private @cst_415 = #util.byte_pattern<495> : tensor<4096x32x1xf16>
  util.global private @cst_101 = #util.byte_pattern<496> : tensor<4096x4096xi4>
  util.global private @cst_714 = #util.byte_pattern<497> : tensor<4096xf16>
  util.global private @cst_132 = #util.byte_pattern<498> : tensor<4096x11008xi4>
  util.global private @cst_446 = #util.byte_pattern<499> : tensor<4096x32x1xf16>
  util.global private @cst_57 = #util.byte_pattern<500> : tensor<11008x4096xi4>
  util.global private @cst_337 = #util.byte_pattern<501> : tensor<11008x32x1xf16>
  util.global private @cst_93 = #util.byte_pattern<502> : tensor<4096x4096xi4>
  util.global private @cst_127 = #util.byte_pattern<503> : tensor<11008x4096xi4>
  util.global private @cst_511 = #util.byte_pattern<504> : tensor<4096x32x1xf16>
  util.global private @cst_622 = #util.byte_pattern<505> : tensor<4096x32x1xf16>
  util.global private @cst_395 = #util.byte_pattern<506> : tensor<11008x32x1xf16>
  util.global private @cst_279 = #util.byte_pattern<507> : tensor<4096x86x1xf16>
  util.global private @cst_393 = #util.byte_pattern<508> : tensor<11008x32x1xf16>
  util.global private @cst_135 = #util.byte_pattern<509> : tensor<4096x4096xi4>
  util.global private @cst_12 = #util.byte_pattern<510> : tensor<4096x4096xi4>
  util.global private @cst_278 = #util.byte_pattern<511> : tensor<4096x32x1xf16>
  util.global private @cst_25 = #util.byte_pattern<512> : tensor<4096x4096xi4>
  util.global private @cst_512 = #util.byte_pattern<513> : tensor<4096x32x1xf16>
  util.global private @cst_370 = #util.byte_pattern<514> : tensor<4096x32x1xf16>
  util.global private @cst_99 = #util.byte_pattern<515> : tensor<11008x4096xi4>
  util.global private @cst_573 = #util.byte_pattern<516> : tensor<4096x86x1xf16>
  util.global private @cst_661 = #util.byte_pattern<517> : tensor<11008x32x1xf16>
  util.global private @cst_743 = 1.000000e+00 : f16
  util.global private @cst_98 = #util.byte_pattern<518> : tensor<11008x4096xi4>
  util.global private @cst_656 = #util.byte_pattern<519> : tensor<4096x32x1xf16>
  util.global private @cst_465 = #util.byte_pattern<520> : tensor<11008x32x1xf16>
  util.global private @cst_237 = #util.byte_pattern<521> : tensor<4096x86x1xf16>
  util.global private @cst_5 = #util.byte_pattern<522> : tensor<4096x4096xi4>
  util.global private @cst_312 = #util.byte_pattern<523> : tensor<11008x32x1xf16>
  util.global private @cst_514 = #util.byte_pattern<524> : tensor<4096x32x1xf16>
  util.global private @cst_314 = #util.byte_pattern<525> : tensor<4096x32x1xf16>
  util.global private @cst_540 = #util.byte_pattern<526> : tensor<4096x32x1xf16>
  util.global private @cst_466 = #util.byte_pattern<527> : tensor<11008x32x1xf16>
  util.global private @cst_691 = #util.byte_pattern<528> : tensor<4096xf16>
  util.global private @cst_220 = #util.byte_pattern<529> : tensor<4096x4096xi4>
  util.global private @cst_304 = #util.byte_pattern<530> : tensor<4096x32x1xf16>
  util.global private @cst_429 = #util.byte_pattern<531> : tensor<4096x32x1xf16>
  util.global private @cst_510 = #util.byte_pattern<532> : tensor<4096x32x1xf16>
  util.global private @cst_554 = #util.byte_pattern<533> : tensor<4096x32x1xf16>
  util.global private @cst_376 = #util.byte_pattern<534> : tensor<4096x32x1xf16>
  util.global private @cst_550 = #util.byte_pattern<535> : tensor<11008x32x1xf16>
  util.global private @cst_437 = #util.byte_pattern<536> : tensor<11008x32x1xf16>
  util.global private @cst_311 = #util.byte_pattern<537> : tensor<11008x32x1xf16>
  util.global private @cst_653 = #util.byte_pattern<538> : tensor<4096x32x1xf16>
  util.global private @cst_685 = #util.byte_pattern<539> : tensor<4096xf16>
  util.global private @cst_603 = #util.byte_pattern<540> : tensor<11008x32x1xf16>
  util.global private @cst_353 = #util.byte_pattern<541> : tensor<11008x32x1xf16>
  util.global private @cst_585 = #util.byte_pattern<542> : tensor<4096x32x1xf16>
  util.global private @cst_671 = #util.byte_pattern<543> : tensor<32000x4096xf16>
  util.global private @cst_301 = #util.byte_pattern<544> : tensor<4096x32x1xf16>
  util.global private @cst_133 = #util.byte_pattern<545> : tensor<11008x4096xi4>
  util.global private @cst_44 = #util.byte_pattern<546> : tensor<4096x4096xi4>
  util.global private @cst_571 = #util.byte_pattern<547> : tensor<4096x32x1xf16>
  util.global private @cst_617 = #util.byte_pattern<548> : tensor<11008x32x1xf16>
  util.global private @cst_264 = #util.byte_pattern<549> : tensor<4096x32x1xf16>
  util.global private @cst_359 = #util.byte_pattern<550> : tensor<4096x32x1xf16>
  util.global private @cst_639 = #util.byte_pattern<551> : tensor<4096x32x1xf16>
  util.global private @cst_46 = #util.byte_pattern<552> : tensor<4096x4096xi4>
  util.global private @cst_30 = #util.byte_pattern<553> : tensor<4096x4096xi4>
  util.global private @cst_412 = #util.byte_pattern<554> : tensor<4096x32x1xf16>
  util.global private @cst_474 = #util.byte_pattern<555> : tensor<4096x32x1xf16>
  util.global private @cst_582 = #util.byte_pattern<556> : tensor<4096x32x1xf16>
  util.global private @cst_433 = #util.byte_pattern<557> : tensor<4096x86x1xf16>
  util.global private @cst_648 = #util.byte_pattern<558> : tensor<11008x32x1xf16>
  util.global private @cst_45 = #util.byte_pattern<559> : tensor<4096x4096xi4>
  util.global private @cst_583 = #util.byte_pattern<560> : tensor<4096x32x1xf16>
  util.global private @cst_350 = #util.byte_pattern<561> : tensor<4096x86x1xf16>
  util.global private @cst_682 = #util.byte_pattern<562> : tensor<4096xf16>
  util.global private @cst_448 = #util.byte_pattern<563> : tensor<4096x86x1xf16>
  util.global private @cst_612 = #util.byte_pattern<564> : tensor<4096x32x1xf16>
  util.global private @cst_643 = #util.byte_pattern<565> : tensor<4096x86x1xf16>
  util.global private @cst_52 = #util.byte_pattern<566> : tensor<4096x4096xi4>
  util.global private @cst_548 = #util.byte_pattern<567> : tensor<11008x32x1xf16>
  util.global private @cst_702 = #util.byte_pattern<568> : tensor<4096xf16>
  util.global private @cst_67 = #util.byte_pattern<569> : tensor<4096x4096xi4>
  util.global private @cst_331 = #util.byte_pattern<570> : tensor<4096x32x1xf16>
  util.global private @cst_148 = #util.byte_pattern<571> : tensor<11008x4096xi4>
  util.global private @cst_347 = #util.byte_pattern<572> : tensor<4096x32x1xf16>
  util.global private @cst_687 = #util.byte_pattern<573> : tensor<4096xf16>
  util.global private @cst_73 = #util.byte_pattern<574> : tensor<4096x4096xi4>
  util.global private @cst_41 = #util.byte_pattern<575> : tensor<4096x11008xi4>
  util.global private @cst_431 = #util.byte_pattern<576> : tensor<4096x32x1xf16>
  util.global private @cst_274 = #util.byte_pattern<577> : tensor<4096x32x1xf16>
  util.global private @cst_659 = #util.byte_pattern<578> : tensor<11008x32x1xf16>
  util.global private @cst_372 = #util.byte_pattern<579> : tensor<4096x32x1xf16>
  util.global private @cst_695 = #util.byte_pattern<580> : tensor<4096xf16>
  util.global private @cst_244 = #util.byte_pattern<581> : tensor<4096x32x1xf16>
  util.global private @cst_138 = #util.byte_pattern<582> : tensor<4096x4096xi4>
  util.global private @cst_627 = #util.byte_pattern<583> : tensor<4096x32x1xf16>
  util.global private @cst_335 = #util.byte_pattern<584> : tensor<4096x86x1xf16>
  util.global private @cst_667 = #util.byte_pattern<585> : tensor<4096x32x1xf16>
  util.global private @cst_55 = #util.byte_pattern<586> : tensor<4096x11008xi4>
  util.global private @cst_96 = #util.byte_pattern<587> : tensor<4096x4096xi4>
  util.global private @cst_218 = #util.byte_pattern<588> : tensor<11008x4096xi4>
  util.global private @cst_254 = #util.byte_pattern<589> : tensor<11008x32x1xf16>
  util.global private @cst_219 = #util.byte_pattern<590> : tensor<4096x4096xi4>
  util.global private @cst_356 = #util.byte_pattern<591> : tensor<4096x32x1xf16>
  util.global private @cst_609 = #util.byte_pattern<592> : tensor<4096x32x1xf16>
  util.global private @cst_459 = #util.byte_pattern<593> : tensor<4096x32x1xf16>
  util.global private @cst_602 = #util.byte_pattern<594> : tensor<4096x86x1xf16>
  util.global private @cst_731 = #util.byte_pattern<595> : tensor<4096xf16>
  util.global private @cst_233 = #util.byte_pattern<596> : tensor<4096x32x1xf16>
  util.global private @cst_352 = #util.byte_pattern<597> : tensor<11008x32x1xf16>
  util.global private @cst_713 = #util.byte_pattern<598> : tensor<4096xf16>
  util.global private @cst_338 = #util.byte_pattern<599> : tensor<11008x32x1xf16>
  util.global private @cst_308 = #util.byte_pattern<600> : tensor<4096x86x1xf16>
  util.global private @cst_63 = #util.byte_pattern<601> : tensor<11008x4096xi4>
  util.global private @cst_185 = #util.byte_pattern<602> : tensor<4096x4096xi4>
  util.global private @cst_115 = #util.byte_pattern<603> : tensor<4096x4096xi4>
  util.global private @cst_32 = #util.byte_pattern<604> : tensor<4096x4096xi4>
  util.global private @cst_117 = #util.byte_pattern<605> : tensor<4096x4096xi4>
  util.global private @cst_253 = #util.byte_pattern<606> : tensor<11008x32x1xf16>
  util.global private @cst_715 = #util.byte_pattern<607> : tensor<4096xf16>
  util.global private @cst_696 = #util.byte_pattern<608> : tensor<4096xf16>
  util.global private @cst_228 = #util.byte_pattern<609> : tensor<11008x32x1xf16>
  util.global private @cst_619 = #util.byte_pattern<610> : tensor<11008x32x1xf16>
  util.global private @cst_166 = #util.byte_pattern<611> : tensor<4096x4096xi4>
  util.global private @cst_389 = #util.byte_pattern<612> : tensor<4096x32x1xf16>
  util.global private @cst_419 = #util.byte_pattern<613> : tensor<4096x86x1xf16>
  util.global private @cst_201 = #util.byte_pattern<614> : tensor<4096x4096xi4>
  util.global private @cst_710 = #util.byte_pattern<615> : tensor<4096xf16>
  util.global private @cst_460 = #util.byte_pattern<616> : tensor<4096x32x1xf16>
  util.global private @cst_635 = #util.byte_pattern<617> : tensor<4096x32x1xf16>
  util.global private @cst_498 = #util.byte_pattern<618> : tensor<4096x32x1xf16>
  util.global private @cst_706 = #util.byte_pattern<619> : tensor<4096xf16>
  util.global private @cst_248 = #util.byte_pattern<620> : tensor<4096x32x1xf16>
  util.global private @cst_261 = #util.byte_pattern<621> : tensor<4096x32x1xf16>
  util.global private @cst_211 = #util.byte_pattern<622> : tensor<11008x4096xi4>
  util.global private @cst_241 = #util.byte_pattern<623> : tensor<11008x32x1xf16>
  util.global private @cst_240 = #util.byte_pattern<624> : tensor<11008x32x1xf16>
  util.global private @cst_213 = #util.byte_pattern<625> : tensor<4096x4096xi4>
  util.global private @cst_707 = #util.byte_pattern<626> : tensor<4096xf16>
  util.global private @cst_24 = #util.byte_pattern<627> : tensor<4096x4096xi4>
  util.global private @cst_9 = #util.byte_pattern<628> : tensor<4096x4096xi4>
  util.global private @cst_595 = #util.byte_pattern<629> : tensor<4096x32x1xf16>
  util.global private @cst_641 = #util.byte_pattern<630> : tensor<4096x32x1xf16>
  util.global private @cst_452 = #util.byte_pattern<631> : tensor<11008x32x1xf16>
  util.global private @cst_377 = #util.byte_pattern<632> : tensor<4096x86x1xf16>
  util.global private @cst_436 = #util.byte_pattern<633> : tensor<11008x32x1xf16>
  util.global private @cst_574 = #util.byte_pattern<634> : tensor<4096x86x1xf16>
  util.global private @cst_537 = #util.byte_pattern<635> : tensor<4096x32x1xf16>
  util.global private @cst_94 = #util.byte_pattern<636> : tensor<4096x4096xi4>
  util.global private @cst_173 = #util.byte_pattern<637> : tensor<4096x4096xi4>
  util.global private @cst_273 = #util.byte_pattern<638> : tensor<4096x32x1xf16>
  util.global private @cst_109 = #util.byte_pattern<639> : tensor<4096x4096xi4>
  util.global private @cst_741 = 0.000000e+00 : f32
  util.global private @cst_223 = #util.byte_pattern<640> : tensor<4096x86x1xf16>
  util.global private @cst_584 = #util.byte_pattern<641> : tensor<4096x32x1xf16>
  util.global private @cst_378 = #util.byte_pattern<642> : tensor<4096x86x1xf16>
  util.global private @cst_61 = #util.byte_pattern<643> : tensor<4096x4096xi4>
  util.global private @cst_470 = #util.byte_pattern<644> : tensor<4096x32x1xf16>
  util.global private @cst_417 = #util.byte_pattern<645> : tensor<4096x32x1xf16>
  util.global private @cst_455 = #util.byte_pattern<646> : tensor<4096x32x1xf16>
  util.global private @cst_664 = #util.byte_pattern<647> : tensor<4096x32x1xf16>
  util.global private @cst_449 = #util.byte_pattern<648> : tensor<11008x32x1xf16>
  util.global private @cst_328 = #util.byte_pattern<649> : tensor<4096x32x1xf16>
  util.global private @cst_191 = #util.byte_pattern<650> : tensor<4096x4096xi4>
  util.global private @cst_320 = #util.byte_pattern<651> : tensor<4096x32x1xf16>
  util.global private @cst_319 = #util.byte_pattern<652> : tensor<4096x32x1xf16>
  util.global private @cst_666 = #util.byte_pattern<653> : tensor<4096x32x1xf16>
  util.global private @cst_636 = #util.byte_pattern<654> : tensor<4096x32x1xf16>
  util.global private @cst_655 = #util.byte_pattern<655> : tensor<4096x32x1xf16>
  util.global private @cst_49 = #util.byte_pattern<656> : tensor<11008x4096xi4>
  util.global private @cst_126 = #util.byte_pattern<657> : tensor<11008x4096xi4>
  util.global private @cst_471 = #util.byte_pattern<658> : tensor<4096x32x1xf16>
  util.global private @cst_495 = #util.byte_pattern<659> : tensor<4096x32x1xf16>
  util.global private @cst_686 = #util.byte_pattern<660> : tensor<4096xf16>
  util.global private @cst_276 = #util.byte_pattern<661> : tensor<4096x32x1xf16>
  util.global private @cst_672 = #util.byte_pattern<662> : tensor<4096xf16>
  util.global private @cst_199 = #util.byte_pattern<663> : tensor<4096x4096xi4>
  util.global private @cst_217 = #util.byte_pattern<664> : tensor<11008x4096xi4>
  util.global private @cst_294 = #util.byte_pattern<665> : tensor<4096x86x1xf16>
  util.global private @cst_54 = #util.byte_pattern<666> : tensor<4096x4096xi4>
  util.global private @cst_165 = #util.byte_pattern<667> : tensor<4096x4096xi4>
  util.global private @cst_693 = #util.byte_pattern<668> : tensor<4096xf16>
  util.global private @cst_562 = #util.byte_pattern<669> : tensor<11008x32x1xf16>
  util.global private @cst_330 = #util.byte_pattern<670> : tensor<4096x32x1xf16>
  util.global private @cst_229 = #util.byte_pattern<671> : tensor<4096x32x1xf16>
  util.global private @cst_558 = #util.byte_pattern<672> : tensor<4096x32x1xf16>
  util.global private @cst_245 = #util.byte_pattern<673> : tensor<4096x32x1xf16>
  util.global private @cst_487 = #util.byte_pattern<674> : tensor<4096x32x1xf16>
  util.global private @cst_740 = 0.000000e+00 : f16
  util.global private @cst_300 = #util.byte_pattern<675> : tensor<4096x32x1xf16>
  util.global private @cst_516 = #util.byte_pattern<676> : tensor<4096x32x1xf16>
  util.global private @cst_572 = #util.byte_pattern<677> : tensor<4096x32x1xf16>
  util.global private @cst_631 = #util.byte_pattern<678> : tensor<11008x32x1xf16>
  util.global private @cst_670 = #util.byte_pattern<679> : tensor<4096x32x1xf16>
  util.global private @cst_618 = #util.byte_pattern<680> : tensor<11008x32x1xf16>
  util.global private @cst_293 = #util.byte_pattern<681> : tensor<4096x86x1xf16>
  util.global private @cst_123 = #util.byte_pattern<682> : tensor<4096x4096xi4>
  util.global private @cst_349 = #util.byte_pattern<683> : tensor<4096x86x1xf16>
  util.global private @cst_445 = #util.byte_pattern<684> : tensor<4096x32x1xf16>
  util.global private @cst_326 = #util.byte_pattern<685> : tensor<11008x32x1xf16>
  util.global private @cst_60 = #util.byte_pattern<686> : tensor<4096x4096xi4>
  util.global private @cst_402 = #util.byte_pattern<687> : tensor<4096x32x1xf16>
  util.global private @cst_469 = #util.byte_pattern<688> : tensor<4096x32x1xf16>
  util.global private @cst_467 = #util.byte_pattern<689> : tensor<4096x32x1xf16>
  util.global private @cst_286 = #util.byte_pattern<690> : tensor<4096x32x1xf16>
  util.global private @cst_484 = #util.byte_pattern<691> : tensor<4096x32x1xf16>
  util.global private @cst_285 = #util.byte_pattern<692> : tensor<4096x32x1xf16>
  util.global private @cst_456 = #util.byte_pattern<693> : tensor<4096x32x1xf16>
  util.global private @cst_373 = #util.byte_pattern<694> : tensor<4096x32x1xf16>
  util.global private @cst_556 = #util.byte_pattern<695> : tensor<4096x32x1xf16>
  util.global private @cst_105 = #util.byte_pattern<696> : tensor<11008x4096xi4>
  util.global private @cst_674 = #util.byte_pattern<697> : tensor<4096xf16>
  util.global private @c32000 = 32000 : index
  util.global private @cst_266 = #util.byte_pattern<698> : tensor<4096x86x1xf16>
  util.global private @cst_404 = #util.byte_pattern<699> : tensor<4096x32x1xf16>
  util.global private @cst_451 = #util.byte_pattern<700> : tensor<11008x32x1xf16>
  util.global private @cst_575 = #util.byte_pattern<701> : tensor<11008x32x1xf16>
  util.global private @cst_1 = #util.byte_pattern<702> : tensor<11008x4096xi4>
  util.global private @cst_564 = #util.byte_pattern<703> : tensor<11008x32x1xf16>
  util.global private @cst_502 = #util.byte_pattern<704> : tensor<4096x32x1xf16>
  util.global private @cst_472 = #util.byte_pattern<705> : tensor<4096x32x1xf16>
  util.global private @cst_536 = #util.byte_pattern<706> : tensor<11008x32x1xf16>
  util.global private @cst_546 = #util.byte_pattern<707> : tensor<4096x86x1xf16>
  util.global private @cst_262 = #util.byte_pattern<708> : tensor<4096x32x1xf16>
  util.global private @cst_78 = #util.byte_pattern<709> : tensor<11008x4096xi4>
  util.global private @cst_200 = #util.byte_pattern<710> : tensor<4096x4096xi4>
  util.global private @cst_475 = #util.byte_pattern<711> : tensor<4096x86x1xf16>
  util.global private @cst_2 = #util.byte_pattern<712> : tensor<4096x4096xi4>
  util.global private @cst_624 = #util.byte_pattern<713> : tensor<4096x32x1xf16>
  util.global private @cst_357 = #util.byte_pattern<714> : tensor<4096x32x1xf16>
  util.global private @cst_490 = #util.byte_pattern<715> : tensor<4096x86x1xf16>
  util.global private @cst_86 = #util.byte_pattern<716> : tensor<4096x4096xi4>
  util.global private @cst_153 = #util.byte_pattern<717> : tensor<4096x11008xi4>
  util.global private @cst_310 = #util.byte_pattern<718> : tensor<11008x32x1xf16>
  util.global private @cst_430 = #util.byte_pattern<719> : tensor<4096x32x1xf16>
  util.global private @cst_440 = #util.byte_pattern<720> : tensor<4096x32x1xf16>
  util.global private @cst_601 = #util.byte_pattern<721> : tensor<4096x86x1xf16>
  util.global private @cst_71 = #util.byte_pattern<722> : tensor<11008x4096xi4>
  util.global private @cst_694 = #util.byte_pattern<723> : tensor<4096xf16>
  util.global private @cst_646 = #util.byte_pattern<724> : tensor<11008x32x1xf16>
  util.global private @cst_545 = #util.byte_pattern<725> : tensor<4096x86x1xf16>
  util.global private @cst_4 = #util.byte_pattern<726> : tensor<4096x4096xi4>
  util.global private @cst_705 = #util.byte_pattern<727> : tensor<4096xf16>
  util.global private @cst_369 = #util.byte_pattern<728> : tensor<4096x32x1xf16>
  util.global private @cst_432 = #util.byte_pattern<729> : tensor<4096x32x1xf16>
  util.global private @cst_297 = #util.byte_pattern<730> : tensor<11008x32x1xf16>
  util.global private @cst_251 = #util.byte_pattern<731> : tensor<4096x86x1xf16>
  util.global private @cst_681 = #util.byte_pattern<732> : tensor<4096xf16>
  util.global private @cst_405 = #util.byte_pattern<733> : tensor<4096x86x1xf16>
  util.global private @cst_723 = #util.byte_pattern<734> : tensor<4096xf16>
  util.global private @cst_721 = #util.byte_pattern<735> : tensor<4096xf16>
  util.global private @cst_630 = #util.byte_pattern<736> : tensor<4096x86x1xf16>
  util.global private @cst_280 = #util.byte_pattern<737> : tensor<4096x86x1xf16>
  util.global private @cst_744 = -6.550400e+04 : f64
  util.global private @cst_587 = #util.byte_pattern<738> : tensor<4096x86x1xf16>
  util.global private @cst_91 = #util.byte_pattern<739> : tensor<11008x4096xi4>
  util.global private @cst_181 = #util.byte_pattern<740> : tensor<4096x11008xi4>
  util.global private @cst_346 = #util.byte_pattern<741> : tensor<4096x32x1xf16>
  util.global private mutable @global_seed = #util.byte_pattern<742> : tensor<i64>
  func.func @first_vicuna_forward(%arg0: tensor<1x?xi64>) -> (tensor<1x?x32000xf16>, tensor<1x32x?x128xf16>, tensor<1x32x?x128xf16>, tensor<1x32x?x128xf16>, tensor<1x32x?x128xf16>, tensor<1x32x?x128xf16>, tensor<1x32x?x128xf16>, tensor<1x32x?x128xf16>, tensor<1x32x?x128xf16>, tensor<1x32x?x128xf16>, tensor<1x32x?x128xf16>, tensor<1x32x?x128xf16>, tensor<1x32x?x128xf16>, tensor<1x32x?x128xf16>, tensor<1x32x?x128xf16>, tensor<1x32x?x128xf16>, tensor<1x32x?x128xf16>, tensor<1x32x?x128xf16>, tensor<1x32x?x128xf16>, tensor<1x32x?x128xf16>, tensor<1x32x?x128xf16>, tensor<1x32x?x128xf16>, tensor<1x32x?x128xf16>, tensor<1x32x?x128xf16>, tensor<1x32x?x128xf16>, tensor<1x32x?x128xf16>, tensor<1x32x?x128xf16>, tensor<1x32x?x128xf16>, tensor<1x32x?x128xf16>, tensor<1x32x?x128xf16>, tensor<1x32x?x128xf16>, tensor<1x32x?x128xf16>, tensor<1x32x?x128xf16>, tensor<1x32x?x128xf16>, tensor<1x32x?x128xf16>, tensor<1x32x?x128xf16>, tensor<1x32x?x128xf16>, tensor<1x32x?x128xf16>, tensor<1x32x?x128xf16>, tensor<1x32x?x128xf16>, tensor<1x32x?x128xf16>, tensor<1x32x?x128xf16>, tensor<1x32x?x128xf16>, tensor<1x32x?x128xf16>, tensor<1x32x?x128xf16>, tensor<1x32x?x128xf16>, tensor<1x32x?x128xf16>, tensor<1x32x?x128xf16>, tensor<1x32x?x128xf16>, tensor<1x32x?x128xf16>, tensor<1x32x?x128xf16>, tensor<1x32x?x128xf16>, tensor<1x32x?x128xf16>, tensor<1x32x?x128xf16>, tensor<1x32x?x128xf16>, tensor<1x32x?x128xf16>, tensor<1x32x?x128xf16>, tensor<1x32x?x128xf16>, tensor<1x32x?x128xf16>, tensor<1x32x?x128xf16>, tensor<1x32x?x128xf16>, tensor<1x32x?x128xf16>, tensor<1x32x?x128xf16>, tensor<1x32x?x128xf16>, tensor<1x32x?x128xf16>) {
    %cst_728 = util.global.load @cst_728 : tensor<4096xf16>
    %cst_599 = util.global.load @cst_599 : tensor<4096x32x1xf16>
    %cst_632 = util.global.load @cst_632 : tensor<11008x32x1xf16>
    %cst_489 = util.global.load @cst_489 : tensor<4096x86x1xf16>
    %cst_443 = util.global.load @cst_443 : tensor<4096x32x1xf16>
    %cst_58 = util.global.load @cst_58 : tensor<4096x4096xi4>
    %cst_29 = util.global.load @cst_29 : tensor<11008x4096xi4>
    %cst_383 = util.global.load @cst_383 : tensor<4096x32x1xf16>
    %cst_367 = util.global.load @cst_367 : tensor<11008x32x1xf16>
    %cst_501 = util.global.load @cst_501 : tensor<4096x32x1xf16>
    %cst_592 = util.global.load @cst_592 : tensor<11008x32x1xf16>
    %cst_524 = util.global.load @cst_524 : tensor<4096x32x1xf16>
    %cst_56 = util.global.load @cst_56 : tensor<11008x4096xi4>
    %cst_107 = util.global.load @cst_107 : tensor<4096x4096xi4>
    %cst_421 = util.global.load @cst_421 : tensor<11008x32x1xf16>
    %cst_190 = util.global.load @cst_190 : tensor<11008x4096xi4>
    %cst_570 = util.global.load @cst_570 : tensor<4096x32x1xf16>
    %cst_642 = util.global.load @cst_642 : tensor<4096x32x1xf16>
    %cst_48 = util.global.load @cst_48 : tensor<4096x11008xi4>
    %cst_252 = util.global.load @cst_252 : tensor<4096x86x1xf16>
    %cst_18 = util.global.load @cst_18 : tensor<4096x4096xi4>
    %cst_541 = util.global.load @cst_541 : tensor<4096x32x1xf16>
    %cst_75 = util.global.load @cst_75 : tensor<4096x4096xi4>
    %cst_231 = util.global.load @cst_231 : tensor<4096x32x1xf16>
    %cst_745 = util.global.load @cst_745 : f64
    %cst_665 = util.global.load @cst_665 : tensor<4096x32x1xf16>
    %cst_712 = util.global.load @cst_712 : tensor<4096xf16>
    %cst_557 = util.global.load @cst_557 : tensor<4096x32x1xf16>
    %cst_159 = util.global.load @cst_159 : tensor<4096x4096xi4>
    %cst_701 = util.global.load @cst_701 : tensor<4096xf16>
    %cst_497 = util.global.load @cst_497 : tensor<4096x32x1xf16>
    %cst_401 = util.global.load @cst_401 : tensor<4096x32x1xf16>
    %cst_737 = util.global.load @cst_737 : tensor<1x1x4096x128xf16>
    %cst_31 = util.global.load @cst_31 : tensor<4096x4096xi4>
    %cst_727 = util.global.load @cst_727 : tensor<4096xf16>
    %cst_580 = util.global.load @cst_580 : tensor<4096x32x1xf16>
    %cst_391 = util.global.load @cst_391 : tensor<4096x86x1xf16>
    %cst_365 = util.global.load @cst_365 : tensor<11008x32x1xf16>
    %cst_302 = util.global.load @cst_302 : tensor<4096x32x1xf16>
    %cst_76 = util.global.load @cst_76 : tensor<4096x11008xi4>
    %cst_120 = util.global.load @cst_120 : tensor<11008x4096xi4>
    %cst_385 = util.global.load @cst_385 : tensor<4096x32x1xf16>
    %cst_255 = util.global.load @cst_255 : tensor<11008x32x1xf16>
    %cst_65 = util.global.load @cst_65 : tensor<4096x4096xi4>
    %cst_203 = util.global.load @cst_203 : tensor<11008x4096xi4>
    %cst_397 = util.global.load @cst_397 : tensor<4096x32x1xf16>
    %cst_176 = util.global.load @cst_176 : tensor<11008x4096xi4>
    %cst_239 = util.global.load @cst_239 : tensor<11008x32x1xf16>
    %cst_660 = util.global.load @cst_660 : tensor<11008x32x1xf16>
    %cst_3 = util.global.load @cst_3 : tensor<4096x4096xi4>
    %cst_461 = util.global.load @cst_461 : tensor<4096x86x1xf16>
    %cst_124 = util.global.load @cst_124 : tensor<4096x4096xi4>
    %cst_649 = util.global.load @cst_649 : tensor<4096x32x1xf16>
    %cst = util.global.load @cst : tensor<4096x11008xi4>
    %cst_644 = util.global.load @cst_644 : tensor<4096x86x1xf16>
    %cst_559 = util.global.load @cst_559 : tensor<4096x86x1xf16>
    %cst_234 = util.global.load @cst_234 : tensor<4096x32x1xf16>
    %cst_530 = util.global.load @cst_530 : tensor<4096x32x1xf16>
    %cst_527 = util.global.load @cst_527 : tensor<4096x32x1xf16>
    %cst_634 = util.global.load @cst_634 : tensor<11008x32x1xf16>
    %cst_256 = util.global.load @cst_256 : tensor<11008x32x1xf16>
    %cst_375 = util.global.load @cst_375 : tensor<4096x32x1xf16>
    %cst_683 = util.global.load @cst_683 : tensor<4096xf16>
    %cst_561 = util.global.load @cst_561 : tensor<11008x32x1xf16>
    %cst_503 = util.global.load @cst_503 : tensor<4096x86x1xf16>
    %cst_428 = util.global.load @cst_428 : tensor<4096x32x1xf16>
    %cst_303 = util.global.load @cst_303 : tensor<4096x32x1xf16>
    %cst_435 = util.global.load @cst_435 : tensor<11008x32x1xf16>
    %cst_703 = util.global.load @cst_703 : tensor<4096xf16>
    %cst_438 = util.global.load @cst_438 : tensor<11008x32x1xf16>
    %cst_193 = util.global.load @cst_193 : tensor<4096x4096xi4>
    %cst_183 = util.global.load @cst_183 : tensor<11008x4096xi4>
    %cst_139 = util.global.load @cst_139 : tensor<4096x11008xi4>
    %cst_422 = util.global.load @cst_422 : tensor<11008x32x1xf16>
    %cst_569 = util.global.load @cst_569 : tensor<4096x32x1xf16>
    %cst_317 = util.global.load @cst_317 : tensor<4096x32x1xf16>
    %cst_565 = util.global.load @cst_565 : tensor<4096x32x1xf16>
    %cst_291 = util.global.load @cst_291 : tensor<4096x32x1xf16>
    %cst_160 = util.global.load @cst_160 : tensor<4096x11008xi4>
    %cst_162 = util.global.load @cst_162 : tensor<11008x4096xi4>
    %cst_170 = util.global.load @cst_170 : tensor<4096x4096xi4>
    %cst_216 = util.global.load @cst_216 : tensor<4096x11008xi4>
    %cst_482 = util.global.load @cst_482 : tensor<4096x32x1xf16>
    %cst_112 = util.global.load @cst_112 : tensor<11008x4096xi4>
    %cst_246 = util.global.load @cst_246 : tensor<4096x32x1xf16>
    %cst_549 = util.global.load @cst_549 : tensor<11008x32x1xf16>
    %cst_406 = util.global.load @cst_406 : tensor<4096x86x1xf16>
    %cst_586 = util.global.load @cst_586 : tensor<4096x32x1xf16>
    %cst_247 = util.global.load @cst_247 : tensor<4096x32x1xf16>
    %cst_542 = util.global.load @cst_542 : tensor<4096x32x1xf16>
    %cst_114 = util.global.load @cst_114 : tensor<4096x4096xi4>
    %cst_214 = util.global.load @cst_214 : tensor<4096x4096xi4>
    %cst_339 = util.global.load @cst_339 : tensor<11008x32x1xf16>
    %cst_725 = util.global.load @cst_725 : tensor<4096xf16>
    %cst_623 = util.global.load @cst_623 : tensor<4096x32x1xf16>
    %cst_271 = util.global.load @cst_271 : tensor<4096x32x1xf16>
    %cst_215 = util.global.load @cst_215 : tensor<4096x4096xi4>
    %cst_423 = util.global.load @cst_423 : tensor<11008x32x1xf16>
    %cst_518 = util.global.load @cst_518 : tensor<4096x86x1xf16>
    %cst_566 = util.global.load @cst_566 : tensor<4096x32x1xf16>
    %cst_478 = util.global.load @cst_478 : tensor<11008x32x1xf16>
    %cst_529 = util.global.load @cst_529 : tensor<4096x32x1xf16>
    %cst_719 = util.global.load @cst_719 : tensor<4096xf16>
    %cst_309 = util.global.load @cst_309 : tensor<11008x32x1xf16>
    %cst_306 = util.global.load @cst_306 : tensor<4096x32x1xf16>
    %cst_17 = util.global.load @cst_17 : tensor<4096x4096xi4>
    %cst_748 = util.global.load @cst_748 : f32
    %cst_70 = util.global.load @cst_70 : tensor<11008x4096xi4>
    %cst_709 = util.global.load @cst_709 : tensor<4096xf16>
    %cst_509 = util.global.load @cst_509 : tensor<4096x32x1xf16>
    %cst_136 = util.global.load @cst_136 : tensor<4096x4096xi4>
    %cst_680 = util.global.load @cst_680 : tensor<4096xf16>
    %cst_263 = util.global.load @cst_263 : tensor<4096x32x1xf16>
    %cst_477 = util.global.load @cst_477 : tensor<11008x32x1xf16>
    %cst_676 = util.global.load @cst_676 : tensor<4096xf16>
    %cst_289 = util.global.load @cst_289 : tensor<4096x32x1xf16>
    %cst_340 = util.global.load @cst_340 : tensor<11008x32x1xf16>
    %cst_447 = util.global.load @cst_447 : tensor<4096x86x1xf16>
    %cst_520 = util.global.load @cst_520 : tensor<11008x32x1xf16>
    %cst_348 = util.global.load @cst_348 : tensor<4096x32x1xf16>
    %cst_651 = util.global.load @cst_651 : tensor<4096x32x1xf16>
    %cst_188 = util.global.load @cst_188 : tensor<4096x11008xi4>
    %cst_104 = util.global.load @cst_104 : tensor<4096x11008xi4>
    %cst_457 = util.global.load @cst_457 : tensor<4096x32x1xf16>
    %c19 = util.global.load @c19 : index
    %cst_184 = util.global.load @cst_184 : tensor<4096x4096xi4>
    %cst_296 = util.global.load @cst_296 : tensor<11008x32x1xf16>
    %cst_629 = util.global.load @cst_629 : tensor<4096x86x1xf16>
    %cst_668 = util.global.load @cst_668 : tensor<4096x32x1xf16>
    %cst_589 = util.global.load @cst_589 : tensor<11008x32x1xf16>
    %cst_167 = util.global.load @cst_167 : tensor<4096x11008xi4>
    %cst_66 = util.global.load @cst_66 : tensor<4096x4096xi4>
    %cst_149 = util.global.load @cst_149 : tensor<4096x4096xi4>
    %cst_146 = util.global.load @cst_146 : tensor<4096x11008xi4>
    %cst_156 = util.global.load @cst_156 : tensor<4096x4096xi4>
    %cst_336 = util.global.load @cst_336 : tensor<4096x86x1xf16>
    %cst_242 = util.global.load @cst_242 : tensor<11008x32x1xf16>
    %cst_358 = util.global.load @cst_358 : tensor<4096x32x1xf16>
    %cst_227 = util.global.load @cst_227 : tensor<11008x32x1xf16>
    %cst_605 = util.global.load @cst_605 : tensor<11008x32x1xf16>
    %cst_236 = util.global.load @cst_236 : tensor<4096x32x1xf16>
    %cst_102 = util.global.load @cst_102 : tensor<4096x4096xi4>
    %cst_610 = util.global.load @cst_610 : tensor<4096x32x1xf16>
    %cst_697 = util.global.load @cst_697 : tensor<4096xf16>
    %cst_677 = util.global.load @cst_677 : tensor<4096xf16>
    %cst_59 = util.global.load @cst_59 : tensor<4096x4096xi4>
    %cst_8 = util.global.load @cst_8 : tensor<11008x4096xi4>
    %cst_398 = util.global.load @cst_398 : tensor<4096x32x1xf16>
    %cst_608 = util.global.load @cst_608 : tensor<4096x32x1xf16>
    %cst_161 = util.global.load @cst_161 : tensor<11008x4096xi4>
    %cst_33 = util.global.load @cst_33 : tensor<4096x4096xi4>
    %cst_313 = util.global.load @cst_313 : tensor<4096x32x1xf16>
    %cst_364 = util.global.load @cst_364 : tensor<4096x86x1xf16>
    %cst_519 = util.global.load @cst_519 : tensor<11008x32x1xf16>
    %cst_647 = util.global.load @cst_647 : tensor<11008x32x1xf16>
    %cst_650 = util.global.load @cst_650 : tensor<4096x32x1xf16>
    %cst_596 = util.global.load @cst_596 : tensor<4096x32x1xf16>
    %cst_321 = util.global.load @cst_321 : tensor<4096x86x1xf16>
    %cst_64 = util.global.load @cst_64 : tensor<11008x4096xi4>
    %c1_i64 = util.global.load @c1_i64 : i64
    %cst_626 = util.global.load @cst_626 : tensor<4096x32x1xf16>
    %cst_493 = util.global.load @cst_493 : tensor<11008x32x1xf16>
    %cst_699 = util.global.load @cst_699 : tensor<4096xf16>
    %c1 = util.global.load @c1 : index
    %cst_551 = util.global.load @cst_551 : tensor<4096x32x1xf16>
    %cst_284 = util.global.load @cst_284 : tensor<11008x32x1xf16>
    %cst_413 = util.global.load @cst_413 : tensor<4096x32x1xf16>
    %cst_441 = util.global.load @cst_441 : tensor<4096x32x1xf16>
    %cst_87 = util.global.load @cst_87 : tensor<4096x4096xi4>
    %cst_708 = util.global.load @cst_708 : tensor<4096xf16>
    %cst_121 = util.global.load @cst_121 : tensor<4096x4096xi4>
    %cst_390 = util.global.load @cst_390 : tensor<4096x32x1xf16>
    %cst_379 = util.global.load @cst_379 : tensor<11008x32x1xf16>
    %cst_19 = util.global.load @cst_19 : tensor<4096x4096xi4>
    %cst_290 = util.global.load @cst_290 : tensor<4096x32x1xf16>
    %cst_468 = util.global.load @cst_468 : tensor<4096x32x1xf16>
    %cst_103 = util.global.load @cst_103 : tensor<4096x4096xi4>
    %cst_454 = util.global.load @cst_454 : tensor<4096x32x1xf16>
    %cst_577 = util.global.load @cst_577 : tensor<11008x32x1xf16>
    %cst_424 = util.global.load @cst_424 : tensor<11008x32x1xf16>
    %cst_747 = util.global.load @cst_747 : f32
    %cst_221 = util.global.load @cst_221 : tensor<4096x4096xi4>
    %cst_265 = util.global.load @cst_265 : tensor<4096x86x1xf16>
    %c2 = util.global.load @c2 : index
    %cst_722 = util.global.load @cst_722 : tensor<4096xf16>
    %cst_151 = util.global.load @cst_151 : tensor<4096x4096xi4>
    %cst_613 = util.global.load @cst_613 : tensor<4096x32x1xf16>
    %cst_35 = util.global.load @cst_35 : tensor<11008x4096xi4>
    %cst_606 = util.global.load @cst_606 : tensor<11008x32x1xf16>
    %cst_663 = util.global.load @cst_663 : tensor<4096x32x1xf16>
    %cst_158 = util.global.load @cst_158 : tensor<4096x4096xi4>
    %cst_479 = util.global.load @cst_479 : tensor<11008x32x1xf16>
    %cst_491 = util.global.load @cst_491 : tensor<11008x32x1xf16>
    %cst_392 = util.global.load @cst_392 : tensor<4096x86x1xf16>
    %cst_420 = util.global.load @cst_420 : tensor<4096x86x1xf16>
    %cst_288 = util.global.load @cst_288 : tensor<4096x32x1xf16>
    %cst_222 = util.global.load @cst_222 : tensor<4096x4096xi4>
    %cst_85 = util.global.load @cst_85 : tensor<11008x4096xi4>
    %cst_207 = util.global.load @cst_207 : tensor<4096x4096xi4>
    %cst_621 = util.global.load @cst_621 : tensor<4096x32x1xf16>
    %cst_733 = util.global.load @cst_733 : tensor<4096xf16>
    %cst_259 = util.global.load @cst_259 : tensor<4096x32x1xf16>
    %cst_718 = util.global.load @cst_718 : tensor<4096xf16>
    %cst_396 = util.global.load @cst_396 : tensor<11008x32x1xf16>
    %cst_600 = util.global.load @cst_600 : tensor<4096x32x1xf16>
    %cst_178 = util.global.load @cst_178 : tensor<4096x4096xi4>
    %cst_342 = util.global.load @cst_342 : tensor<4096x32x1xf16>
    %cst_591 = util.global.load @cst_591 : tensor<11008x32x1xf16>
    %cst_746 = util.global.load @cst_746 : f64
    %cst_281 = util.global.load @cst_281 : tensor<11008x32x1xf16>
    %cst_16 = util.global.load @cst_16 : tensor<4096x4096xi4>
    %cst_688 = util.global.load @cst_688 : tensor<4096xf16>
    %cst_476 = util.global.load @cst_476 : tensor<4096x86x1xf16>
    %cst_394 = util.global.load @cst_394 : tensor<11008x32x1xf16>
    %cst_521 = util.global.load @cst_521 : tensor<11008x32x1xf16>
    %c19_i64 = util.global.load @c19_i64 : i64
    %cst_14 = util.global.load @cst_14 : tensor<11008x4096xi4>
    %cst_458 = util.global.load @cst_458 : tensor<4096x32x1xf16>
    %cst_679 = util.global.load @cst_679 : tensor<4096xf16>
    %cst_164 = util.global.load @cst_164 : tensor<4096x4096xi4>
    %cst_739 = util.global.load @cst_739 : tensor<32000x4096xf16>
    %cst_735 = util.global.load @cst_735 : tensor<4096xf16>
    %cst_483 = util.global.load @cst_483 : tensor<4096x32x1xf16>
    %cst_26 = util.global.load @cst_26 : tensor<4096x4096xi4>
    %cst_593 = util.global.load @cst_593 : tensor<4096x32x1xf16>
    %cst_407 = util.global.load @cst_407 : tensor<11008x32x1xf16>
    %cst_384 = util.global.load @cst_384 : tensor<4096x32x1xf16>
    %cst_344 = util.global.load @cst_344 : tensor<4096x32x1xf16>
    %cst_7 = util.global.load @cst_7 : tensor<11008x4096xi4>
    %cst_563 = util.global.load @cst_563 : tensor<11008x32x1xf16>
    %cst_616 = util.global.load @cst_616 : tensor<4096x86x1xf16>
    %cst_499 = util.global.load @cst_499 : tensor<4096x32x1xf16>
    %cst_403 = util.global.load @cst_403 : tensor<4096x32x1xf16>
    %cst_110 = util.global.load @cst_110 : tensor<4096x4096xi4>
    %cst_141 = util.global.load @cst_141 : tensor<11008x4096xi4>
    %cst_168 = util.global.load @cst_168 : tensor<11008x4096xi4>
    %cst_345 = util.global.load @cst_345 : tensor<4096x32x1xf16>
    %cst_506 = util.global.load @cst_506 : tensor<11008x32x1xf16>
    %cst_544 = util.global.load @cst_544 : tensor<4096x32x1xf16>
    %cst_243 = util.global.load @cst_243 : tensor<4096x32x1xf16>
    %cst_690 = util.global.load @cst_690 : tensor<4096xf16>
    %cst_507 = util.global.load @cst_507 : tensor<11008x32x1xf16>
    %cst_95 = util.global.load @cst_95 : tensor<4096x4096xi4>
    %cst_125 = util.global.load @cst_125 : tensor<4096x11008xi4>
    %cst_716 = util.global.load @cst_716 : tensor<4096xf16>
    %cst_36 = util.global.load @cst_36 : tensor<11008x4096xi4>
    %cst_15 = util.global.load @cst_15 : tensor<11008x4096xi4>
    %cst_260 = util.global.load @cst_260 : tensor<4096x32x1xf16>
    %cst_225 = util.global.load @cst_225 : tensor<11008x32x1xf16>
    %cst_555 = util.global.load @cst_555 : tensor<4096x32x1xf16>
    %cst_678 = util.global.load @cst_678 : tensor<4096xf16>
    %cst_152 = util.global.load @cst_152 : tensor<4096x4096xi4>
    %cst_275 = util.global.load @cst_275 : tensor<4096x32x1xf16>
    %cst_692 = util.global.load @cst_692 : tensor<4096xf16>
    %cst_724 = util.global.load @cst_724 : tensor<4096xf16>
    %cst_177 = util.global.load @cst_177 : tensor<4096x4096xi4>
    %cst_734 = util.global.load @cst_734 : tensor<4096xf16>
    %cst_175 = util.global.load @cst_175 : tensor<11008x4096xi4>
    %cst_145 = util.global.load @cst_145 : tensor<4096x4096xi4>
    %cst_552 = util.global.load @cst_552 : tensor<4096x32x1xf16>
    %cst_182 = util.global.load @cst_182 : tensor<11008x4096xi4>
    %cst_523 = util.global.load @cst_523 : tensor<4096x32x1xf16>
    %cst_444 = util.global.load @cst_444 : tensor<4096x32x1xf16>
    %cst_180 = util.global.load @cst_180 : tensor<4096x4096xi4>
    %cst_464 = util.global.load @cst_464 : tensor<11008x32x1xf16>
    %cst_119 = util.global.load @cst_119 : tensor<11008x4096xi4>
    %cst_235 = util.global.load @cst_235 : tensor<4096x32x1xf16>
    %cst_360 = util.global.load @cst_360 : tensor<4096x32x1xf16>
    %cst_196 = util.global.load @cst_196 : tensor<11008x4096xi4>
    %cst_597 = util.global.load @cst_597 : tensor<4096x32x1xf16>
    %cst_579 = util.global.load @cst_579 : tensor<4096x32x1xf16>
    %c0_i64 = util.global.load @c0_i64 : i64
    %cst_23 = util.global.load @cst_23 : tensor<4096x4096xi4>
    %cst_169 = util.global.load @cst_169 : tensor<11008x4096xi4>
    %cst_267 = util.global.load @cst_267 : tensor<11008x32x1xf16>
    %cst_192 = util.global.load @cst_192 : tensor<4096x4096xi4>
    %cst_717 = util.global.load @cst_717 : tensor<4096xf16>
    %cst_485 = util.global.load @cst_485 : tensor<4096x32x1xf16>
    %cst_442 = util.global.load @cst_442 : tensor<4096x32x1xf16>
    %cst_208 = util.global.load @cst_208 : tensor<4096x4096xi4>
    %cst_163 = util.global.load @cst_163 : tensor<4096x4096xi4>
    %cst_439 = util.global.load @cst_439 : tensor<4096x32x1xf16>
    %cst_620 = util.global.load @cst_620 : tensor<11008x32x1xf16>
    %cst_324 = util.global.load @cst_324 : tensor<11008x32x1xf16>
    %cst_532 = util.global.load @cst_532 : tensor<4096x86x1xf16>
    %cst_315 = util.global.load @cst_315 : tensor<4096x32x1xf16>
    %cst_157 = util.global.load @cst_157 : tensor<4096x4096xi4>
    %cst_513 = util.global.load @cst_513 : tensor<4096x32x1xf16>
    %cst_318 = util.global.load @cst_318 : tensor<4096x32x1xf16>
    %cst_581 = util.global.load @cst_581 : tensor<4096x32x1xf16>
    %cst_224 = util.global.load @cst_224 : tensor<4096x86x1xf16>
    %cst_453 = util.global.load @cst_453 : tensor<4096x32x1xf16>
    %cst_77 = util.global.load @cst_77 : tensor<11008x4096xi4>
    %cst_72 = util.global.load @cst_72 : tensor<4096x4096xi4>
    %cst_282 = util.global.load @cst_282 : tensor<11008x32x1xf16>
    %cst_553 = util.global.load @cst_553 : tensor<4096x32x1xf16>
    %cst_257 = util.global.load @cst_257 : tensor<4096x32x1xf16>
    %cst_535 = util.global.load @cst_535 : tensor<11008x32x1xf16>
    %cst_187 = util.global.load @cst_187 : tensor<4096x4096xi4>
    %cst_673 = util.global.load @cst_673 : tensor<4096xf16>
    %cst_128 = util.global.load @cst_128 : tensor<4096x4096xi4>
    %cst_486 = util.global.load @cst_486 : tensor<4096x32x1xf16>
    %cst_736 = util.global.load @cst_736 : tensor<1x1x4096x128xf16>
    %cst_131 = util.global.load @cst_131 : tensor<4096x4096xi4>
    %cst_171 = util.global.load @cst_171 : tensor<4096x4096xi4>
    %cst_533 = util.global.load @cst_533 : tensor<11008x32x1xf16>
    %cst_189 = util.global.load @cst_189 : tensor<11008x4096xi4>
    %cst_615 = util.global.load @cst_615 : tensor<4096x86x1xf16>
    %cst_118 = util.global.load @cst_118 : tensor<4096x11008xi4>
    %cst_329 = util.global.load @cst_329 : tensor<4096x32x1xf16>
    %cst_232 = util.global.load @cst_232 : tensor<4096x32x1xf16>
    %cst_388 = util.global.load @cst_388 : tensor<4096x32x1xf16>
    %cst_704 = util.global.load @cst_704 : tensor<4096xf16>
    %cst_410 = util.global.load @cst_410 : tensor<11008x32x1xf16>
    %cst_425 = util.global.load @cst_425 : tensor<4096x32x1xf16>
    %cst_238 = util.global.load @cst_238 : tensor<4096x86x1xf16>
    %cst_539 = util.global.load @cst_539 : tensor<4096x32x1xf16>
    %cst_327 = util.global.load @cst_327 : tensor<4096x32x1xf16>
    %cst_638 = util.global.load @cst_638 : tensor<4096x32x1xf16>
    %cst_27 = util.global.load @cst_27 : tensor<4096x11008xi4>
    %cst_362 = util.global.load @cst_362 : tensor<4096x32x1xf16>
    %cst_249 = util.global.load @cst_249 : tensor<4096x32x1xf16>
    %cst_106 = util.global.load @cst_106 : tensor<11008x4096xi4>
    %cst_698 = util.global.load @cst_698 : tensor<4096xf16>
    %cst_298 = util.global.load @cst_298 : tensor<11008x32x1xf16>
    %cst_434 = util.global.load @cst_434 : tensor<4096x86x1xf16>
    %cst_381 = util.global.load @cst_381 : tensor<11008x32x1xf16>
    %cst_496 = util.global.load @cst_496 : tensor<4096x32x1xf16>
    %cst_494 = util.global.load @cst_494 : tensor<11008x32x1xf16>
    %cst_143 = util.global.load @cst_143 : tensor<4096x4096xi4>
    %cst_69 = util.global.load @cst_69 : tensor<4096x11008xi4>
    %cst_645 = util.global.load @cst_645 : tensor<11008x32x1xf16>
    %cst_720 = util.global.load @cst_720 : tensor<4096xf16>
    %cst_305 = util.global.load @cst_305 : tensor<4096x32x1xf16>
    %cst_50 = util.global.load @cst_50 : tensor<11008x4096xi4>
    %cst_526 = util.global.load @cst_526 : tensor<4096x32x1xf16>
    %cst_669 = util.global.load @cst_669 : tensor<4096x32x1xf16>
    %cst_97 = util.global.load @cst_97 : tensor<4096x11008xi4>
    %cst_568 = util.global.load @cst_568 : tensor<4096x32x1xf16>
    %cst_576 = util.global.load @cst_576 : tensor<11008x32x1xf16>
    %cst_6 = util.global.load @cst_6 : tensor<4096x11008xi4>
    %cst_625 = util.global.load @cst_625 : tensor<4096x32x1xf16>
    %cst_210 = util.global.load @cst_210 : tensor<11008x4096xi4>
    %cst_500 = util.global.load @cst_500 : tensor<4096x32x1xf16>
    %cst_662 = util.global.load @cst_662 : tensor<11008x32x1xf16>
    %cst_590 = util.global.load @cst_590 : tensor<11008x32x1xf16>
    %cst_198 = util.global.load @cst_198 : tensor<4096x4096xi4>
    %cst_172 = util.global.load @cst_172 : tensor<4096x4096xi4>
    %cst_10 = util.global.load @cst_10 : tensor<4096x4096xi4>
    %cst_111 = util.global.load @cst_111 : tensor<4096x11008xi4>
    %cst_205 = util.global.load @cst_205 : tensor<4096x4096xi4>
    %cst_594 = util.global.load @cst_594 : tensor<4096x32x1xf16>
    %cst_386 = util.global.load @cst_386 : tensor<4096x32x1xf16>
    %cst_272 = util.global.load @cst_272 : tensor<4096x32x1xf16>
    %cst_598 = util.global.load @cst_598 : tensor<4096x32x1xf16>
    %cst_283 = util.global.load @cst_283 : tensor<11008x32x1xf16>
    %cst_488 = util.global.load @cst_488 : tensor<4096x32x1xf16>
    %cst_20 = util.global.load @cst_20 : tensor<4096x11008xi4>
    %cst_316 = util.global.load @cst_316 : tensor<4096x32x1xf16>
    %cst_611 = util.global.load @cst_611 : tensor<4096x32x1xf16>
    %cst_212 = util.global.load @cst_212 : tensor<4096x4096xi4>
    %true = util.global.load @true : i1
    %cst_333 = util.global.load @cst_333 : tensor<4096x32x1xf16>
    %cst_738 = util.global.load @cst_738 : tensor<4096xf16>
    %cst_400 = util.global.load @cst_400 : tensor<4096x32x1xf16>
    %cst_560 = util.global.load @cst_560 : tensor<4096x86x1xf16>
    %cst_684 = util.global.load @cst_684 : tensor<4096xf16>
    %cst_179 = util.global.load @cst_179 : tensor<4096x4096xi4>
    %cst_528 = util.global.load @cst_528 : tensor<4096x32x1xf16>
    %cst_268 = util.global.load @cst_268 : tensor<11008x32x1xf16>
    %cst_90 = util.global.load @cst_90 : tensor<4096x11008xi4>
    %cst_654 = util.global.load @cst_654 : tensor<4096x32x1xf16>
    %cst_269 = util.global.load @cst_269 : tensor<11008x32x1xf16>
    %cst_186 = util.global.load @cst_186 : tensor<4096x4096xi4>
    %cst_463 = util.global.load @cst_463 : tensor<11008x32x1xf16>
    %cst_515 = util.global.load @cst_515 : tensor<4096x32x1xf16>
    %cst_43 = util.global.load @cst_43 : tensor<11008x4096xi4>
    %cst_416 = util.global.load @cst_416 : tensor<4096x32x1xf16>
    %cst_174 = util.global.load @cst_174 : tensor<4096x11008xi4>
    %cst_633 = util.global.load @cst_633 : tensor<11008x32x1xf16>
    %cst_22 = util.global.load @cst_22 : tensor<11008x4096xi4>
    %cst_450 = util.global.load @cst_450 : tensor<11008x32x1xf16>
    %cst_92 = util.global.load @cst_92 : tensor<11008x4096xi4>
    %cst_522 = util.global.load @cst_522 : tensor<11008x32x1xf16>
    %cst_0 = util.global.load @cst_0 : tensor<11008x4096xi4>
    %cst_38 = util.global.load @cst_38 : tensor<4096x4096xi4>
    %cst_341 = util.global.load @cst_341 : tensor<4096x32x1xf16>
    %cst_492 = util.global.load @cst_492 : tensor<11008x32x1xf16>
    %cst_270 = util.global.load @cst_270 : tensor<11008x32x1xf16>
    %cst_82 = util.global.load @cst_82 : tensor<4096x4096xi4>
    %cst_652 = util.global.load @cst_652 : tensor<4096x32x1xf16>
    %cst_399 = util.global.load @cst_399 : tensor<4096x32x1xf16>
    %cst_711 = util.global.load @cst_711 : tensor<4096xf16>
    %cst_374 = util.global.load @cst_374 : tensor<4096x32x1xf16>
    %cst_11 = util.global.load @cst_11 : tensor<4096x4096xi4>
    %cst_418 = util.global.load @cst_418 : tensor<4096x32x1xf16>
    %cst_355 = util.global.load @cst_355 : tensor<4096x32x1xf16>
    %cst_508 = util.global.load @cst_508 : tensor<11008x32x1xf16>
    %cst_547 = util.global.load @cst_547 : tensor<11008x32x1xf16>
    %cst_202 = util.global.load @cst_202 : tensor<4096x11008xi4>
    %cst_28 = util.global.load @cst_28 : tensor<11008x4096xi4>
    %cst_34 = util.global.load @cst_34 : tensor<4096x11008xi4>
    %cst_481 = util.global.load @cst_481 : tensor<4096x32x1xf16>
    %cst_122 = util.global.load @cst_122 : tensor<4096x4096xi4>
    %cst_84 = util.global.load @cst_84 : tensor<11008x4096xi4>
    %cst_47 = util.global.load @cst_47 : tensor<4096x4096xi4>
    %cst_108 = util.global.load @cst_108 : tensor<4096x4096xi4>
    %cst_531 = util.global.load @cst_531 : tensor<4096x86x1xf16>
    %cst_40 = util.global.load @cst_40 : tensor<4096x4096xi4>
    %cst_351 = util.global.load @cst_351 : tensor<11008x32x1xf16>
    %cst_74 = util.global.load @cst_74 : tensor<4096x4096xi4>
    %cst_380 = util.global.load @cst_380 : tensor<11008x32x1xf16>
    %cst_307 = util.global.load @cst_307 : tensor<4096x86x1xf16>
    %cst_382 = util.global.load @cst_382 : tensor<11008x32x1xf16>
    %cst_675 = util.global.load @cst_675 : tensor<4096xf16>
    %cst_277 = util.global.load @cst_277 : tensor<4096x32x1xf16>
    %cst_534 = util.global.load @cst_534 : tensor<11008x32x1xf16>
    %cst_729 = util.global.load @cst_729 : tensor<4096xf16>
    %cst_368 = util.global.load @cst_368 : tensor<11008x32x1xf16>
    %cst_116 = util.global.load @cst_116 : tensor<4096x4096xi4>
    %cst_195 = util.global.load @cst_195 : tensor<4096x11008xi4>
    %cst_21 = util.global.load @cst_21 : tensor<11008x4096xi4>
    %cst_89 = util.global.load @cst_89 : tensor<4096x4096xi4>
    %cst_194 = util.global.load @cst_194 : tensor<4096x4096xi4>
    %cst_363 = util.global.load @cst_363 : tensor<4096x86x1xf16>
    %cst_607 = util.global.load @cst_607 : tensor<4096x32x1xf16>
    %cst_361 = util.global.load @cst_361 : tensor<4096x32x1xf16>
    %cst_332 = util.global.load @cst_332 : tensor<4096x32x1xf16>
    %cst_295 = util.global.load @cst_295 : tensor<11008x32x1xf16>
    %cst_323 = util.global.load @cst_323 : tensor<11008x32x1xf16>
    %cst_517 = util.global.load @cst_517 : tensor<4096x86x1xf16>
    %cst_628 = util.global.load @cst_628 : tensor<4096x32x1xf16>
    %cst_637 = util.global.load @cst_637 : tensor<4096x32x1xf16>
    %cst_325 = util.global.load @cst_325 : tensor<11008x32x1xf16>
    %cst_129 = util.global.load @cst_129 : tensor<4096x4096xi4>
    %cst_657 = util.global.load @cst_657 : tensor<4096x86x1xf16>
    %cst_68 = util.global.load @cst_68 : tensor<4096x4096xi4>
    %cst_343 = util.global.load @cst_343 : tensor<4096x32x1xf16>
    %cst_258 = util.global.load @cst_258 : tensor<4096x32x1xf16>
    %cst_113 = util.global.load @cst_113 : tensor<11008x4096xi4>
    %cst_504 = util.global.load @cst_504 : tensor<4096x86x1xf16>
    %cst_51 = util.global.load @cst_51 : tensor<4096x4096xi4>
    %cst_409 = util.global.load @cst_409 : tensor<11008x32x1xf16>
    %cst_150 = util.global.load @cst_150 : tensor<4096x4096xi4>
    %cst_427 = util.global.load @cst_427 : tensor<4096x32x1xf16>
    %cst_726 = util.global.load @cst_726 : tensor<4096xf16>
    %cst_334 = util.global.load @cst_334 : tensor<4096x32x1xf16>
    %cst_730 = util.global.load @cst_730 : tensor<4096xf16>
    %cst_39 = util.global.load @cst_39 : tensor<4096x4096xi4>
    %cst_79 = util.global.load @cst_79 : tensor<4096x4096xi4>
    %cst_462 = util.global.load @cst_462 : tensor<4096x86x1xf16>
    %cst_538 = util.global.load @cst_538 : tensor<4096x32x1xf16>
    %cst_250 = util.global.load @cst_250 : tensor<4096x32x1xf16>
    %cst_322 = util.global.load @cst_322 : tensor<4096x86x1xf16>
    %cst_130 = util.global.load @cst_130 : tensor<4096x4096xi4>
    %cst_134 = util.global.load @cst_134 : tensor<11008x4096xi4>
    %cst_543 = util.global.load @cst_543 : tensor<4096x32x1xf16>
    %cst_53 = util.global.load @cst_53 : tensor<4096x4096xi4>
    %cst_13 = util.global.load @cst_13 : tensor<4096x11008xi4>
    %cst_604 = util.global.load @cst_604 : tensor<11008x32x1xf16>
    %cst_155 = util.global.load @cst_155 : tensor<11008x4096xi4>
    %cst_426 = util.global.load @cst_426 : tensor<4096x32x1xf16>
    %cst_140 = util.global.load @cst_140 : tensor<11008x4096xi4>
    %cst_414 = util.global.load @cst_414 : tensor<4096x32x1xf16>
    %cst_505 = util.global.load @cst_505 : tensor<11008x32x1xf16>
    %cst_287 = util.global.load @cst_287 : tensor<4096x32x1xf16>
    %cst_42 = util.global.load @cst_42 : tensor<11008x4096xi4>
    %cst_366 = util.global.load @cst_366 : tensor<11008x32x1xf16>
    %cst_480 = util.global.load @cst_480 : tensor<11008x32x1xf16>
    %cst_81 = util.global.load @cst_81 : tensor<4096x4096xi4>
    %cst_137 = util.global.load @cst_137 : tensor<4096x4096xi4>
    %cst_408 = util.global.load @cst_408 : tensor<11008x32x1xf16>
    %cst_147 = util.global.load @cst_147 : tensor<11008x4096xi4>
    %cst_209 = util.global.load @cst_209 : tensor<4096x11008xi4>
    %cst_37 = util.global.load @cst_37 : tensor<4096x4096xi4>
    %cst_567 = util.global.load @cst_567 : tensor<4096x32x1xf16>
    %cst_658 = util.global.load @cst_658 : tensor<4096x86x1xf16>
    %cst_411 = util.global.load @cst_411 : tensor<4096x32x1xf16>
    %cst_206 = util.global.load @cst_206 : tensor<4096x4096xi4>
    %cst_80 = util.global.load @cst_80 : tensor<4096x4096xi4>
    %cst_614 = util.global.load @cst_614 : tensor<4096x32x1xf16>
    %cst_700 = util.global.load @cst_700 : tensor<4096xf16>
    %cst_204 = util.global.load @cst_204 : tensor<11008x4096xi4>
    %cst_588 = util.global.load @cst_588 : tensor<4096x86x1xf16>
    %cst_371 = util.global.load @cst_371 : tensor<4096x32x1xf16>
    %cst_230 = util.global.load @cst_230 : tensor<4096x32x1xf16>
    %cst_62 = util.global.load @cst_62 : tensor<4096x11008xi4>
    %cst_142 = util.global.load @cst_142 : tensor<4096x4096xi4>
    %cst_292 = util.global.load @cst_292 : tensor<4096x32x1xf16>
    %cst_88 = util.global.load @cst_88 : tensor<4096x4096xi4>
    %cst_473 = util.global.load @cst_473 : tensor<4096x32x1xf16>
    %cst_387 = util.global.load @cst_387 : tensor<4096x32x1xf16>
    %cst_742 = util.global.load @cst_742 : f16
    %cst_578 = util.global.load @cst_578 : tensor<11008x32x1xf16>
    %cst_83 = util.global.load @cst_83 : tensor<4096x11008xi4>
    %cst_154 = util.global.load @cst_154 : tensor<11008x4096xi4>
    %cst_197 = util.global.load @cst_197 : tensor<11008x4096xi4>
    %cst_525 = util.global.load @cst_525 : tensor<4096x32x1xf16>
    %cst_640 = util.global.load @cst_640 : tensor<4096x32x1xf16>
    %cst_299 = util.global.load @cst_299 : tensor<4096x32x1xf16>
    %cst_100 = util.global.load @cst_100 : tensor<4096x4096xi4>
    %cst_144 = util.global.load @cst_144 : tensor<4096x4096xi4>
    %cst_354 = util.global.load @cst_354 : tensor<11008x32x1xf16>
    %cst_689 = util.global.load @cst_689 : tensor<4096xf16>
    %cst_732 = util.global.load @cst_732 : tensor<4096xf16>
    %cst_226 = util.global.load @cst_226 : tensor<11008x32x1xf16>
    %cst_415 = util.global.load @cst_415 : tensor<4096x32x1xf16>
    %cst_101 = util.global.load @cst_101 : tensor<4096x4096xi4>
    %cst_714 = util.global.load @cst_714 : tensor<4096xf16>
    %cst_132 = util.global.load @cst_132 : tensor<4096x11008xi4>
    %cst_446 = util.global.load @cst_446 : tensor<4096x32x1xf16>
    %cst_57 = util.global.load @cst_57 : tensor<11008x4096xi4>
    %cst_337 = util.global.load @cst_337 : tensor<11008x32x1xf16>
    %cst_93 = util.global.load @cst_93 : tensor<4096x4096xi4>
    %cst_127 = util.global.load @cst_127 : tensor<11008x4096xi4>
    %cst_511 = util.global.load @cst_511 : tensor<4096x32x1xf16>
    %cst_622 = util.global.load @cst_622 : tensor<4096x32x1xf16>
    %cst_395 = util.global.load @cst_395 : tensor<11008x32x1xf16>
    %cst_279 = util.global.load @cst_279 : tensor<4096x86x1xf16>
    %cst_393 = util.global.load @cst_393 : tensor<11008x32x1xf16>
    %cst_135 = util.global.load @cst_135 : tensor<4096x4096xi4>
    %cst_12 = util.global.load @cst_12 : tensor<4096x4096xi4>
    %cst_278 = util.global.load @cst_278 : tensor<4096x32x1xf16>
    %cst_25 = util.global.load @cst_25 : tensor<4096x4096xi4>
    %cst_512 = util.global.load @cst_512 : tensor<4096x32x1xf16>
    %cst_370 = util.global.load @cst_370 : tensor<4096x32x1xf16>
    %cst_99 = util.global.load @cst_99 : tensor<11008x4096xi4>
    %cst_573 = util.global.load @cst_573 : tensor<4096x86x1xf16>
    %cst_661 = util.global.load @cst_661 : tensor<11008x32x1xf16>
    %cst_743 = util.global.load @cst_743 : f16
    %cst_98 = util.global.load @cst_98 : tensor<11008x4096xi4>
    %cst_656 = util.global.load @cst_656 : tensor<4096x32x1xf16>
    %cst_465 = util.global.load @cst_465 : tensor<11008x32x1xf16>
    %cst_237 = util.global.load @cst_237 : tensor<4096x86x1xf16>
    %cst_5 = util.global.load @cst_5 : tensor<4096x4096xi4>
    %cst_312 = util.global.load @cst_312 : tensor<11008x32x1xf16>
    %cst_514 = util.global.load @cst_514 : tensor<4096x32x1xf16>
    %cst_314 = util.global.load @cst_314 : tensor<4096x32x1xf16>
    %cst_540 = util.global.load @cst_540 : tensor<4096x32x1xf16>
    %cst_466 = util.global.load @cst_466 : tensor<11008x32x1xf16>
    %cst_691 = util.global.load @cst_691 : tensor<4096xf16>
    %cst_220 = util.global.load @cst_220 : tensor<4096x4096xi4>
    %cst_304 = util.global.load @cst_304 : tensor<4096x32x1xf16>
    %cst_429 = util.global.load @cst_429 : tensor<4096x32x1xf16>
    %cst_510 = util.global.load @cst_510 : tensor<4096x32x1xf16>
    %cst_554 = util.global.load @cst_554 : tensor<4096x32x1xf16>
    %cst_376 = util.global.load @cst_376 : tensor<4096x32x1xf16>
    %cst_550 = util.global.load @cst_550 : tensor<11008x32x1xf16>
    %cst_437 = util.global.load @cst_437 : tensor<11008x32x1xf16>
    %cst_311 = util.global.load @cst_311 : tensor<11008x32x1xf16>
    %cst_653 = util.global.load @cst_653 : tensor<4096x32x1xf16>
    %cst_685 = util.global.load @cst_685 : tensor<4096xf16>
    %cst_603 = util.global.load @cst_603 : tensor<11008x32x1xf16>
    %cst_353 = util.global.load @cst_353 : tensor<11008x32x1xf16>
    %cst_585 = util.global.load @cst_585 : tensor<4096x32x1xf16>
    %cst_671 = util.global.load @cst_671 : tensor<32000x4096xf16>
    %cst_301 = util.global.load @cst_301 : tensor<4096x32x1xf16>
    %cst_133 = util.global.load @cst_133 : tensor<11008x4096xi4>
    %cst_44 = util.global.load @cst_44 : tensor<4096x4096xi4>
    %cst_571 = util.global.load @cst_571 : tensor<4096x32x1xf16>
    %cst_617 = util.global.load @cst_617 : tensor<11008x32x1xf16>
    %cst_264 = util.global.load @cst_264 : tensor<4096x32x1xf16>
    %cst_359 = util.global.load @cst_359 : tensor<4096x32x1xf16>
    %cst_639 = util.global.load @cst_639 : tensor<4096x32x1xf16>
    %cst_46 = util.global.load @cst_46 : tensor<4096x4096xi4>
    %cst_30 = util.global.load @cst_30 : tensor<4096x4096xi4>
    %cst_412 = util.global.load @cst_412 : tensor<4096x32x1xf16>
    %cst_474 = util.global.load @cst_474 : tensor<4096x32x1xf16>
    %cst_582 = util.global.load @cst_582 : tensor<4096x32x1xf16>
    %cst_433 = util.global.load @cst_433 : tensor<4096x86x1xf16>
    %cst_648 = util.global.load @cst_648 : tensor<11008x32x1xf16>
    %cst_45 = util.global.load @cst_45 : tensor<4096x4096xi4>
    %cst_583 = util.global.load @cst_583 : tensor<4096x32x1xf16>
    %cst_350 = util.global.load @cst_350 : tensor<4096x86x1xf16>
    %cst_682 = util.global.load @cst_682 : tensor<4096xf16>
    %cst_448 = util.global.load @cst_448 : tensor<4096x86x1xf16>
    %cst_612 = util.global.load @cst_612 : tensor<4096x32x1xf16>
    %cst_643 = util.global.load @cst_643 : tensor<4096x86x1xf16>
    %cst_52 = util.global.load @cst_52 : tensor<4096x4096xi4>
    %cst_548 = util.global.load @cst_548 : tensor<11008x32x1xf16>
    %cst_702 = util.global.load @cst_702 : tensor<4096xf16>
    %cst_67 = util.global.load @cst_67 : tensor<4096x4096xi4>
    %cst_331 = util.global.load @cst_331 : tensor<4096x32x1xf16>
    %cst_148 = util.global.load @cst_148 : tensor<11008x4096xi4>
    %cst_347 = util.global.load @cst_347 : tensor<4096x32x1xf16>
    %cst_687 = util.global.load @cst_687 : tensor<4096xf16>
    %cst_73 = util.global.load @cst_73 : tensor<4096x4096xi4>
    %cst_41 = util.global.load @cst_41 : tensor<4096x11008xi4>
    %cst_431 = util.global.load @cst_431 : tensor<4096x32x1xf16>
    %cst_274 = util.global.load @cst_274 : tensor<4096x32x1xf16>
    %cst_659 = util.global.load @cst_659 : tensor<11008x32x1xf16>
    %cst_372 = util.global.load @cst_372 : tensor<4096x32x1xf16>
    %cst_695 = util.global.load @cst_695 : tensor<4096xf16>
    %cst_244 = util.global.load @cst_244 : tensor<4096x32x1xf16>
    %cst_138 = util.global.load @cst_138 : tensor<4096x4096xi4>
    %cst_627 = util.global.load @cst_627 : tensor<4096x32x1xf16>
    %cst_335 = util.global.load @cst_335 : tensor<4096x86x1xf16>
    %cst_667 = util.global.load @cst_667 : tensor<4096x32x1xf16>
    %cst_55 = util.global.load @cst_55 : tensor<4096x11008xi4>
    %cst_96 = util.global.load @cst_96 : tensor<4096x4096xi4>
    %cst_218 = util.global.load @cst_218 : tensor<11008x4096xi4>
    %cst_254 = util.global.load @cst_254 : tensor<11008x32x1xf16>
    %cst_219 = util.global.load @cst_219 : tensor<4096x4096xi4>
    %cst_356 = util.global.load @cst_356 : tensor<4096x32x1xf16>
    %cst_609 = util.global.load @cst_609 : tensor<4096x32x1xf16>
    %cst_459 = util.global.load @cst_459 : tensor<4096x32x1xf16>
    %cst_602 = util.global.load @cst_602 : tensor<4096x86x1xf16>
    %cst_731 = util.global.load @cst_731 : tensor<4096xf16>
    %cst_233 = util.global.load @cst_233 : tensor<4096x32x1xf16>
    %cst_352 = util.global.load @cst_352 : tensor<11008x32x1xf16>
    %cst_713 = util.global.load @cst_713 : tensor<4096xf16>
    %cst_338 = util.global.load @cst_338 : tensor<11008x32x1xf16>
    %cst_308 = util.global.load @cst_308 : tensor<4096x86x1xf16>
    %cst_63 = util.global.load @cst_63 : tensor<11008x4096xi4>
    %cst_185 = util.global.load @cst_185 : tensor<4096x4096xi4>
    %cst_115 = util.global.load @cst_115 : tensor<4096x4096xi4>
    %cst_32 = util.global.load @cst_32 : tensor<4096x4096xi4>
    %cst_117 = util.global.load @cst_117 : tensor<4096x4096xi4>
    %cst_253 = util.global.load @cst_253 : tensor<11008x32x1xf16>
    %cst_715 = util.global.load @cst_715 : tensor<4096xf16>
    %cst_696 = util.global.load @cst_696 : tensor<4096xf16>
    %cst_228 = util.global.load @cst_228 : tensor<11008x32x1xf16>
    %cst_619 = util.global.load @cst_619 : tensor<11008x32x1xf16>
    %cst_166 = util.global.load @cst_166 : tensor<4096x4096xi4>
    %cst_389 = util.global.load @cst_389 : tensor<4096x32x1xf16>
    %cst_419 = util.global.load @cst_419 : tensor<4096x86x1xf16>
    %cst_201 = util.global.load @cst_201 : tensor<4096x4096xi4>
    %cst_710 = util.global.load @cst_710 : tensor<4096xf16>
    %cst_460 = util.global.load @cst_460 : tensor<4096x32x1xf16>
    %cst_635 = util.global.load @cst_635 : tensor<4096x32x1xf16>
    %cst_498 = util.global.load @cst_498 : tensor<4096x32x1xf16>
    %cst_706 = util.global.load @cst_706 : tensor<4096xf16>
    %cst_248 = util.global.load @cst_248 : tensor<4096x32x1xf16>
    %cst_261 = util.global.load @cst_261 : tensor<4096x32x1xf16>
    %cst_211 = util.global.load @cst_211 : tensor<11008x4096xi4>
    %cst_241 = util.global.load @cst_241 : tensor<11008x32x1xf16>
    %cst_240 = util.global.load @cst_240 : tensor<11008x32x1xf16>
    %cst_213 = util.global.load @cst_213 : tensor<4096x4096xi4>
    %cst_707 = util.global.load @cst_707 : tensor<4096xf16>
    %cst_24 = util.global.load @cst_24 : tensor<4096x4096xi4>
    %cst_9 = util.global.load @cst_9 : tensor<4096x4096xi4>
    %cst_595 = util.global.load @cst_595 : tensor<4096x32x1xf16>
    %cst_641 = util.global.load @cst_641 : tensor<4096x32x1xf16>
    %cst_452 = util.global.load @cst_452 : tensor<11008x32x1xf16>
    %cst_377 = util.global.load @cst_377 : tensor<4096x86x1xf16>
    %cst_436 = util.global.load @cst_436 : tensor<11008x32x1xf16>
    %cst_574 = util.global.load @cst_574 : tensor<4096x86x1xf16>
    %cst_537 = util.global.load @cst_537 : tensor<4096x32x1xf16>
    %cst_94 = util.global.load @cst_94 : tensor<4096x4096xi4>
    %cst_173 = util.global.load @cst_173 : tensor<4096x4096xi4>
    %cst_273 = util.global.load @cst_273 : tensor<4096x32x1xf16>
    %cst_109 = util.global.load @cst_109 : tensor<4096x4096xi4>
    %cst_741 = util.global.load @cst_741 : f32
    %cst_223 = util.global.load @cst_223 : tensor<4096x86x1xf16>
    %cst_584 = util.global.load @cst_584 : tensor<4096x32x1xf16>
    %cst_378 = util.global.load @cst_378 : tensor<4096x86x1xf16>
    %cst_61 = util.global.load @cst_61 : tensor<4096x4096xi4>
    %cst_470 = util.global.load @cst_470 : tensor<4096x32x1xf16>
    %cst_417 = util.global.load @cst_417 : tensor<4096x32x1xf16>
    %cst_455 = util.global.load @cst_455 : tensor<4096x32x1xf16>
    %cst_664 = util.global.load @cst_664 : tensor<4096x32x1xf16>
    %cst_449 = util.global.load @cst_449 : tensor<11008x32x1xf16>
    %cst_328 = util.global.load @cst_328 : tensor<4096x32x1xf16>
    %cst_191 = util.global.load @cst_191 : tensor<4096x4096xi4>
    %cst_320 = util.global.load @cst_320 : tensor<4096x32x1xf16>
    %cst_319 = util.global.load @cst_319 : tensor<4096x32x1xf16>
    %cst_666 = util.global.load @cst_666 : tensor<4096x32x1xf16>
    %cst_636 = util.global.load @cst_636 : tensor<4096x32x1xf16>
    %cst_655 = util.global.load @cst_655 : tensor<4096x32x1xf16>
    %cst_49 = util.global.load @cst_49 : tensor<11008x4096xi4>
    %cst_126 = util.global.load @cst_126 : tensor<11008x4096xi4>
    %cst_471 = util.global.load @cst_471 : tensor<4096x32x1xf16>
    %cst_495 = util.global.load @cst_495 : tensor<4096x32x1xf16>
    %cst_686 = util.global.load @cst_686 : tensor<4096xf16>
    %cst_276 = util.global.load @cst_276 : tensor<4096x32x1xf16>
    %cst_672 = util.global.load @cst_672 : tensor<4096xf16>
    %cst_199 = util.global.load @cst_199 : tensor<4096x4096xi4>
    %cst_217 = util.global.load @cst_217 : tensor<11008x4096xi4>
    %cst_294 = util.global.load @cst_294 : tensor<4096x86x1xf16>
    %cst_54 = util.global.load @cst_54 : tensor<4096x4096xi4>
    %cst_165 = util.global.load @cst_165 : tensor<4096x4096xi4>
    %cst_693 = util.global.load @cst_693 : tensor<4096xf16>
    %cst_562 = util.global.load @cst_562 : tensor<11008x32x1xf16>
    %cst_330 = util.global.load @cst_330 : tensor<4096x32x1xf16>
    %cst_229 = util.global.load @cst_229 : tensor<4096x32x1xf16>
    %cst_558 = util.global.load @cst_558 : tensor<4096x32x1xf16>
    %cst_245 = util.global.load @cst_245 : tensor<4096x32x1xf16>
    %cst_487 = util.global.load @cst_487 : tensor<4096x32x1xf16>
    %cst_740 = util.global.load @cst_740 : f16
    %cst_300 = util.global.load @cst_300 : tensor<4096x32x1xf16>
    %cst_516 = util.global.load @cst_516 : tensor<4096x32x1xf16>
    %cst_572 = util.global.load @cst_572 : tensor<4096x32x1xf16>
    %cst_631 = util.global.load @cst_631 : tensor<11008x32x1xf16>
    %cst_670 = util.global.load @cst_670 : tensor<4096x32x1xf16>
    %cst_618 = util.global.load @cst_618 : tensor<11008x32x1xf16>
    %cst_293 = util.global.load @cst_293 : tensor<4096x86x1xf16>
    %cst_123 = util.global.load @cst_123 : tensor<4096x4096xi4>
    %cst_349 = util.global.load @cst_349 : tensor<4096x86x1xf16>
    %cst_445 = util.global.load @cst_445 : tensor<4096x32x1xf16>
    %cst_326 = util.global.load @cst_326 : tensor<11008x32x1xf16>
    %cst_60 = util.global.load @cst_60 : tensor<4096x4096xi4>
    %cst_402 = util.global.load @cst_402 : tensor<4096x32x1xf16>
    %cst_469 = util.global.load @cst_469 : tensor<4096x32x1xf16>
    %cst_467 = util.global.load @cst_467 : tensor<4096x32x1xf16>
    %cst_286 = util.global.load @cst_286 : tensor<4096x32x1xf16>
    %cst_484 = util.global.load @cst_484 : tensor<4096x32x1xf16>
    %cst_285 = util.global.load @cst_285 : tensor<4096x32x1xf16>
    %cst_456 = util.global.load @cst_456 : tensor<4096x32x1xf16>
    %cst_373 = util.global.load @cst_373 : tensor<4096x32x1xf16>
    %cst_556 = util.global.load @cst_556 : tensor<4096x32x1xf16>
    %cst_105 = util.global.load @cst_105 : tensor<11008x4096xi4>
    %cst_674 = util.global.load @cst_674 : tensor<4096xf16>
    %c32000 = util.global.load @c32000 : index
    %cst_266 = util.global.load @cst_266 : tensor<4096x86x1xf16>
    %cst_404 = util.global.load @cst_404 : tensor<4096x32x1xf16>
    %cst_451 = util.global.load @cst_451 : tensor<11008x32x1xf16>
    %cst_575 = util.global.load @cst_575 : tensor<11008x32x1xf16>
    %cst_1 = util.global.load @cst_1 : tensor<11008x4096xi4>
    %cst_564 = util.global.load @cst_564 : tensor<11008x32x1xf16>
    %cst_502 = util.global.load @cst_502 : tensor<4096x32x1xf16>
    %cst_472 = util.global.load @cst_472 : tensor<4096x32x1xf16>
    %cst_536 = util.global.load @cst_536 : tensor<11008x32x1xf16>
    %cst_546 = util.global.load @cst_546 : tensor<4096x86x1xf16>
    %cst_262 = util.global.load @cst_262 : tensor<4096x32x1xf16>
    %cst_78 = util.global.load @cst_78 : tensor<11008x4096xi4>
    %cst_200 = util.global.load @cst_200 : tensor<4096x4096xi4>
    %cst_475 = util.global.load @cst_475 : tensor<4096x86x1xf16>
    %cst_2 = util.global.load @cst_2 : tensor<4096x4096xi4>
    %cst_624 = util.global.load @cst_624 : tensor<4096x32x1xf16>
    %cst_357 = util.global.load @cst_357 : tensor<4096x32x1xf16>
    %cst_490 = util.global.load @cst_490 : tensor<4096x86x1xf16>
    %cst_86 = util.global.load @cst_86 : tensor<4096x4096xi4>
    %cst_153 = util.global.load @cst_153 : tensor<4096x11008xi4>
    %cst_310 = util.global.load @cst_310 : tensor<11008x32x1xf16>
    %cst_430 = util.global.load @cst_430 : tensor<4096x32x1xf16>
    %cst_440 = util.global.load @cst_440 : tensor<4096x32x1xf16>
    %cst_601 = util.global.load @cst_601 : tensor<4096x86x1xf16>
    %cst_71 = util.global.load @cst_71 : tensor<11008x4096xi4>
    %cst_694 = util.global.load @cst_694 : tensor<4096xf16>
    %cst_646 = util.global.load @cst_646 : tensor<11008x32x1xf16>
    %cst_545 = util.global.load @cst_545 : tensor<4096x86x1xf16>
    %cst_4 = util.global.load @cst_4 : tensor<4096x4096xi4>
    %cst_705 = util.global.load @cst_705 : tensor<4096xf16>
    %cst_369 = util.global.load @cst_369 : tensor<4096x32x1xf16>
    %cst_432 = util.global.load @cst_432 : tensor<4096x32x1xf16>
    %cst_297 = util.global.load @cst_297 : tensor<11008x32x1xf16>
    %cst_251 = util.global.load @cst_251 : tensor<4096x86x1xf16>
    %cst_681 = util.global.load @cst_681 : tensor<4096xf16>
    %cst_405 = util.global.load @cst_405 : tensor<4096x86x1xf16>
    %cst_723 = util.global.load @cst_723 : tensor<4096xf16>
    %cst_721 = util.global.load @cst_721 : tensor<4096xf16>
    %cst_630 = util.global.load @cst_630 : tensor<4096x86x1xf16>
    %cst_280 = util.global.load @cst_280 : tensor<4096x86x1xf16>
    %cst_744 = util.global.load @cst_744 : f64
    %cst_587 = util.global.load @cst_587 : tensor<4096x86x1xf16>
    %cst_91 = util.global.load @cst_91 : tensor<11008x4096xi4>
    %cst_181 = util.global.load @cst_181 : tensor<4096x11008xi4>
    %cst_346 = util.global.load @cst_346 : tensor<4096x32x1xf16>
    %dim = tensor.dim %arg0, %c1 : tensor<1x?xi64>
    %0 = tensor.empty(%dim) : tensor<?xi64>
    %1 = linalg.generic {indexing_maps = [affine_map<(d0) -> (d0)>], iterator_types = ["parallel"]} outs(%0 : tensor<?xi64>) {
    ^bb0(%out: i64):
      %2403 = linalg.index 0 : index
      %2404 = arith.index_cast %2403 : index to i64
      linalg.yield %2404 : i64
    } -> tensor<?xi64>
    %expanded = tensor.expand_shape %1 [[0, 1]] : tensor<?xi64> into tensor<1x?xi64>
    %2 = tensor.empty(%dim) : tensor<1x?x4096xf16>
    %3 = linalg.generic {indexing_maps = [affine_map<(d0, d1, d2) -> (d0, d1)>, affine_map<(d0, d1, d2) -> (d0, d1, d2)>], iterator_types = ["parallel", "parallel", "parallel"]} ins(%arg0 : tensor<1x?xi64>) outs(%2 : tensor<1x?x4096xf16>) {
    ^bb0(%in: i64, %out: f16):
      %2403 = arith.index_cast %in : i64 to index
      %2404 = linalg.index 2 : index
      %2405 = arith.cmpi slt, %2403, %c32000 : index
      cf.assert %2405, "index must be smaller than dim size"
      %2406 = arith.cmpi sge, %in, %c0_i64 : i64
      cf.assert %2406, "index must be larger or equal to 0"
      %extracted = tensor.extract %cst_739[%2403, %2404] : tensor<32000x4096xf16>
      linalg.yield %extracted : f16
    } -> tensor<1x?x4096xf16>
    %4 = tensor.empty() : tensor<f64>
    %5 = linalg.fill ins(%cst_744 : f64) outs(%4 : tensor<f64>) -> tensor<f64>
    %6 = tensor.empty() : tensor<f16>
    %7 = linalg.generic {indexing_maps = [affine_map<() -> ()>, affine_map<() -> ()>], iterator_types = []} ins(%5 : tensor<f64>) outs(%6 : tensor<f16>) {
    ^bb0(%in: f64, %out: f16):
      %2403 = arith.truncf %in : f64 to f16
      linalg.yield %2403 : f16
    } -> tensor<f16>
    %8 = tensor.empty(%dim, %dim) : tensor<?x?xf16>
    %9 = linalg.generic {indexing_maps = [affine_map<(d0, d1) -> (d0, d1)>], iterator_types = ["parallel", "parallel"]} outs(%8 : tensor<?x?xf16>) {
    ^bb0(%out: f16):
      %extracted = tensor.extract %7[] : tensor<f16>
      linalg.yield %extracted : f16
    } -> tensor<?x?xf16>
    %10 = linalg.generic {indexing_maps = [affine_map<(d0) -> (d0)>, affine_map<(d0) -> (d0)>], iterator_types = ["parallel"]} ins(%1 : tensor<?xi64>) outs(%0 : tensor<?xi64>) {
    ^bb0(%in: i64, %out: i64):
      %2403 = arith.addi %in, %c1_i64 : i64
      linalg.yield %2403 : i64
    } -> tensor<?xi64>
    %expanded_0 = tensor.expand_shape %10 [[0, 1]] : tensor<?xi64> into tensor<?x1xi64>
    %11 = tensor.empty(%dim, %dim) : tensor<?x?xi1>
    %12 = linalg.generic {indexing_maps = [affine_map<(d0, d1) -> (d1)>, affine_map<(d0, d1) -> (d0, 0)>, affine_map<(d0, d1) -> (d0, d1)>], iterator_types = ["parallel", "parallel"]} ins(%1, %expanded_0 : tensor<?xi64>, tensor<?x1xi64>) outs(%11 : tensor<?x?xi1>) {
    ^bb0(%in: i64, %in_1222: i64, %out: i1):
      %2403 = arith.cmpi slt, %in, %in_1222 : i64
      linalg.yield %2403 : i1
    } -> tensor<?x?xi1>
    %13 = tensor.empty() : tensor<i64>
    %14 = linalg.fill ins(%c0_i64 : i64) outs(%13 : tensor<i64>) -> tensor<i64>
    %15 = linalg.generic {indexing_maps = [affine_map<() -> ()>, affine_map<() -> ()>], iterator_types = []} ins(%14 : tensor<i64>) outs(%6 : tensor<f16>) {
    ^bb0(%in: i64, %out: f16):
      %2403 = arith.sitofp %in : i64 to f16
      linalg.yield %2403 : f16
    } -> tensor<f16>
    %16 = linalg.generic {indexing_maps = [affine_map<(d0, d1) -> (d0, d1)>, affine_map<(d0, d1) -> ()>, affine_map<(d0, d1) -> (d0, d1)>, affine_map<(d0, d1) -> (d0, d1)>], iterator_types = ["parallel", "parallel"]} ins(%12, %15, %9 : tensor<?x?xi1>, tensor<f16>, tensor<?x?xf16>) outs(%8 : tensor<?x?xf16>) {
    ^bb0(%in: i1, %in_1222: f16, %in_1223: f16, %out: f16):
      %2403 = arith.select %in, %in_1222, %in_1223 : f16
      linalg.yield %2403 : f16
    } -> tensor<?x?xf16>
    %expanded_1 = tensor.expand_shape %16 [[0, 1, 2], [3]] : tensor<?x?xf16> into tensor<1x1x?x?xf16>
    %17 = tensor.empty(%dim, %dim) : tensor<1x1x?x?xi1>
    %18 = linalg.generic {indexing_maps = [affine_map<(d0, d1, d2, d3) -> (d0, d1, d2, d3)>], iterator_types = ["parallel", "parallel", "parallel", "parallel"]} outs(%17 : tensor<1x1x?x?xi1>) {
    ^bb0(%out: i1):
      linalg.yield %true : i1
    } -> tensor<1x1x?x?xi1>
    %19 = tensor.empty(%dim, %dim) : tensor<1x1x?x?xf16>
    %20 = linalg.generic {indexing_maps = [affine_map<(d0, d1, d2, d3) -> (0, 0, d2, d3)>, affine_map<(d0, d1, d2, d3) -> (d0, d1, d2, d3)>], iterator_types = ["parallel", "parallel", "parallel", "parallel"]} ins(%18 : tensor<1x1x?x?xi1>) outs(%19 : tensor<1x1x?x?xf16>) {
    ^bb0(%in: i1, %out: f16):
      %2403 = arith.uitofp %in : i1 to f16
      linalg.yield %2403 : f16
    } -> tensor<1x1x?x?xf16>
    %21 = linalg.generic {indexing_maps = [affine_map<(d0, d1, d2, d3) -> (0, 0, d2, d3)>, affine_map<(d0, d1, d2, d3) -> (d0, d1, d2, d3)>], iterator_types = ["parallel", "parallel", "parallel", "parallel"]} ins(%20 : tensor<1x1x?x?xf16>) outs(%19 : tensor<1x1x?x?xf16>) {
    ^bb0(%in: f16, %out: f16):
      %2403 = arith.subf %cst_743, %in : f16
      linalg.yield %2403 : f16
    } -> tensor<1x1x?x?xf16>
    %22 = linalg.generic {indexing_maps = [affine_map<(d0, d1, d2, d3) -> (0, 0, d2, d3)>, affine_map<(d0, d1, d2, d3) -> (d0, d1, d2, d3)>], iterator_types = ["parallel", "parallel", "parallel", "parallel"]} ins(%21 : tensor<1x1x?x?xf16>) outs(%17 : tensor<1x1x?x?xi1>) {
    ^bb0(%in: f16, %out: i1):
      %2403 = arith.cmpf une, %in, %cst_740 : f16
      linalg.yield %2403 : i1
    } -> tensor<1x1x?x?xi1>
    %23 = linalg.generic {indexing_maps = [affine_map<(d0, d1, d2, d3) -> (0, 0, d2, d3)>, affine_map<(d0, d1, d2, d3) -> ()>, affine_map<(d0, d1, d2, d3) -> (0, 0, d2, d3)>, affine_map<(d0, d1, d2, d3) -> (d0, d1, d2, d3)>], iterator_types = ["parallel", "parallel", "parallel", "parallel"]} ins(%22, %7, %21 : tensor<1x1x?x?xi1>, tensor<f16>, tensor<1x1x?x?xf16>) outs(%19 : tensor<1x1x?x?xf16>) {
    ^bb0(%in: i1, %in_1222: f16, %in_1223: f16, %out: f16):
      %2403 = arith.select %in, %in_1222, %in_1223 : f16
      linalg.yield %2403 : f16
    } -> tensor<1x1x?x?xf16>
    %24 = linalg.generic {indexing_maps = [affine_map<(d0, d1, d2, d3) -> (0, 0, d2, d3)>, affine_map<(d0, d1, d2, d3) -> (0, 0, d2, d3)>, affine_map<(d0, d1, d2, d3) -> (d0, d1, d2, d3)>], iterator_types = ["parallel", "parallel", "parallel", "parallel"]} ins(%23, %expanded_1 : tensor<1x1x?x?xf16>, tensor<1x1x?x?xf16>) outs(%19 : tensor<1x1x?x?xf16>) {
    ^bb0(%in: f16, %in_1222: f16, %out: f16):
      %2403 = arith.addf %in, %in_1222 : f16
      linalg.yield %2403 : f16
    } -> tensor<1x1x?x?xf16>
    %25 = arith.index_cast %dim : index to i64
    %26 = arith.cmpi sge, %25, %c0_i64 : i64
    cf.assert %26, "negative values not allowed in new dimensions"
    %27 = tensor.empty(%dim) : tensor<1x?x4096xf32>
    %28 = linalg.generic {indexing_maps = [affine_map<(d0, d1, d2) -> (0, d1, d2)>, affine_map<(d0, d1, d2) -> (d0, d1, d2)>], iterator_types = ["parallel", "parallel", "parallel"]} ins(%3 : tensor<1x?x4096xf16>) outs(%27 : tensor<1x?x4096xf32>) {
    ^bb0(%in: f16, %out: f32):
      %2403 = arith.extf %in : f16 to f32
      linalg.yield %2403 : f32
    } -> tensor<1x?x4096xf32>
    %29 = linalg.generic {indexing_maps = [affine_map<(d0, d1, d2) -> (0, d1, d2)>, affine_map<(d0, d1, d2) -> (d0, d1, d2)>], iterator_types = ["parallel", "parallel", "parallel"]} ins(%28 : tensor<1x?x4096xf32>) outs(%27 : tensor<1x?x4096xf32>) {
    ^bb0(%in: f32, %out: f32):
      %2403 = math.powf %in, %cst_747 : f32
      linalg.yield %2403 : f32
    } -> tensor<1x?x4096xf32>
    %30 = tensor.empty(%dim) : tensor<1x?x1xf32>
    %31 = linalg.fill ins(%cst_741 : f32) outs(%30 : tensor<1x?x1xf32>) -> tensor<1x?x1xf32>
    %32 = linalg.generic {indexing_maps = [affine_map<(d0, d1, d2) -> (d0, d1, d2)>, affine_map<(d0, d1, d2) -> (d0, d1, 0)>], iterator_types = ["parallel", "parallel", "reduction"]} ins(%29 : tensor<1x?x4096xf32>) outs(%31 : tensor<1x?x1xf32>) {
    ^bb0(%in: f32, %out: f32):
      %2403 = arith.addf %in, %out : f32
      linalg.yield %2403 : f32
    } -> tensor<1x?x1xf32>
    %33 = linalg.generic {indexing_maps = [affine_map<(d0, d1, d2) -> (0, d1, 0)>, affine_map<(d0, d1, d2) -> (d0, d1, d2)>], iterator_types = ["parallel", "parallel", "parallel"]} ins(%32 : tensor<1x?x1xf32>) outs(%30 : tensor<1x?x1xf32>) {
    ^bb0(%in: f32, %out: f32):
      %2403 = arith.divf %in, %cst_748 : f32
      linalg.yield %2403 : f32
    } -> tensor<1x?x1xf32>
    %34 = linalg.generic {indexing_maps = [affine_map<(d0, d1, d2) -> (0, d1, 0)>, affine_map<(d0, d1, d2) -> (d0, d1, d2)>], iterator_types = ["parallel", "parallel", "parallel"]} ins(%33 : tensor<1x?x1xf32>) outs(%30 : tensor<1x?x1xf32>) {
    ^bb0(%in: f32, %out: f32):
      %2403 = arith.truncf %cst_745 : f64 to f32
      %2404 = arith.addf %in, %2403 : f32
      linalg.yield %2404 : f32
    } -> tensor<1x?x1xf32>
    %35 = linalg.generic {indexing_maps = [affine_map<(d0, d1, d2) -> (0, d1, 0)>, affine_map<(d0, d1, d2) -> (d0, d1, d2)>], iterator_types = ["parallel", "parallel", "parallel"]} ins(%34 : tensor<1x?x1xf32>) outs(%30 : tensor<1x?x1xf32>) {
    ^bb0(%in: f32, %out: f32):
      %2403 = math.rsqrt %in : f32
      linalg.yield %2403 : f32
    } -> tensor<1x?x1xf32>
    %36 = linalg.generic {indexing_maps = [affine_map<(d0, d1, d2) -> (0, d1, d2)>, affine_map<(d0, d1, d2) -> (0, d1, 0)>, affine_map<(d0, d1, d2) -> (d0, d1, d2)>], iterator_types = ["parallel", "parallel", "parallel"]} ins(%3, %35 : tensor<1x?x4096xf16>, tensor<1x?x1xf32>) outs(%27 : tensor<1x?x4096xf32>) {
    ^bb0(%in: f16, %in_1222: f32, %out: f32):
      %2403 = arith.extf %in : f16 to f32
      %2404 = arith.mulf %2403, %in_1222 : f32
      linalg.yield %2404 : f32
    } -> tensor<1x?x4096xf32>
    cf.assert %26, "negative values not allowed in new dimensions"
    %37 = linalg.generic {indexing_maps = [affine_map<(d0, d1, d2) -> (0, d1, d2)>, affine_map<(d0, d1, d2) -> (d0, d1, d2)>], iterator_types = ["parallel", "parallel", "parallel"]} ins(%36 : tensor<1x?x4096xf32>) outs(%2 : tensor<1x?x4096xf16>) {
    ^bb0(%in: f32, %out: f16):
      %2403 = arith.truncf %in : f32 to f16
      linalg.yield %2403 : f16
    } -> tensor<1x?x4096xf16>
    %38 = linalg.generic {indexing_maps = [affine_map<(d0, d1, d2) -> (d2)>, affine_map<(d0, d1, d2) -> (0, d1, d2)>, affine_map<(d0, d1, d2) -> (d0, d1, d2)>], iterator_types = ["parallel", "parallel", "parallel"]} ins(%cst_738, %37 : tensor<4096xf16>, tensor<1x?x4096xf16>) outs(%2 : tensor<1x?x4096xf16>) {
    ^bb0(%in: f16, %in_1222: f16, %out: f16):
      %2403 = arith.mulf %in, %in_1222 : f16
      linalg.yield %2403 : f16
    } -> tensor<1x?x4096xf16>
    %expanded_2 = tensor.expand_shape %38 [[0], [1], [2, 3]] : tensor<1x?x4096xf16> into tensor<1x?x32x128xf16>
    %expanded_3 = tensor.expand_shape %cst_222 [[0], [1, 2]] : tensor<4096x4096xi4> into tensor<4096x32x128xi4>
    %39 = tensor.empty() : tensor<4096x32x128xf16>
    %dim_4 = tensor.dim %38, %c1 : tensor<1x?x4096xf16>
    %40 = tensor.empty(%dim_4) : tensor<1x?x4096xf16>
    %41 = linalg.fill ins(%cst_740 : f16) outs(%40 : tensor<1x?x4096xf16>) -> tensor<1x?x4096xf16>
    %42 = linalg.generic {indexing_maps = [affine_map<(d0, d1, d2) -> (d0, d1, d2)>, affine_map<(d0, d1, d2) -> (d0, d1, 0)>, affine_map<(d0, d1, d2) -> (d0, d1, 0)>, affine_map<(d0, d1, d2) -> (d0, d1, d2)>], iterator_types = ["parallel", "parallel", "parallel"]} ins(%expanded_3, %cst_670, %cst_669 : tensor<4096x32x128xi4>, tensor<4096x32x1xf16>, tensor<4096x32x1xf16>) outs(%39 : tensor<4096x32x128xf16>) {
    ^bb0(%in: i4, %in_1222: f16, %in_1223: f16, %out: f16):
      %2403 = arith.extui %in : i4 to i32
      %2404 = arith.uitofp %2403 : i32 to f16
      %2405 = arith.subf %2404, %in_1223 : f16
      %2406 = arith.mulf %2405, %in_1222 : f16
      linalg.yield %2406 : f16
    } -> tensor<4096x32x128xf16>
    %43 = linalg.generic {indexing_maps = [affine_map<(d0, d1, d2, d3, d4) -> (d0, d1, d3, d4)>, affine_map<(d0, d1, d2, d3, d4) -> (d2, d3, d4)>, affine_map<(d0, d1, d2, d3, d4) -> (d0, d1, d2)>], iterator_types = ["parallel", "parallel", "parallel", "reduction", "reduction"]} ins(%expanded_2, %42 : tensor<1x?x32x128xf16>, tensor<4096x32x128xf16>) outs(%41 : tensor<1x?x4096xf16>) {
    ^bb0(%in: f16, %in_1222: f16, %out: f16):
      %2403 = arith.mulf %in, %in_1222 : f16
      %2404 = arith.addf %2403, %out : f16
      linalg.yield %2404 : f16
    } -> tensor<1x?x4096xf16>
    %expanded_5 = tensor.expand_shape %cst_221 [[0], [1, 2]] : tensor<4096x4096xi4> into tensor<4096x32x128xi4>
    %44 = linalg.generic {indexing_maps = [affine_map<(d0, d1, d2) -> (d0, d1, d2)>, affine_map<(d0, d1, d2) -> (d0, d1, 0)>, affine_map<(d0, d1, d2) -> (d0, d1, 0)>, affine_map<(d0, d1, d2) -> (d0, d1, d2)>], iterator_types = ["parallel", "parallel", "parallel"]} ins(%expanded_5, %cst_668, %cst_667 : tensor<4096x32x128xi4>, tensor<4096x32x1xf16>, tensor<4096x32x1xf16>) outs(%39 : tensor<4096x32x128xf16>) {
    ^bb0(%in: i4, %in_1222: f16, %in_1223: f16, %out: f16):
      %2403 = arith.extui %in : i4 to i32
      %2404 = arith.uitofp %2403 : i32 to f16
      %2405 = arith.subf %2404, %in_1223 : f16
      %2406 = arith.mulf %2405, %in_1222 : f16
      linalg.yield %2406 : f16
    } -> tensor<4096x32x128xf16>
    %45 = linalg.generic {indexing_maps = [affine_map<(d0, d1, d2, d3, d4) -> (d0, d1, d3, d4)>, affine_map<(d0, d1, d2, d3, d4) -> (d2, d3, d4)>, affine_map<(d0, d1, d2, d3, d4) -> (d0, d1, d2)>], iterator_types = ["parallel", "parallel", "parallel", "reduction", "reduction"]} ins(%expanded_2, %44 : tensor<1x?x32x128xf16>, tensor<4096x32x128xf16>) outs(%41 : tensor<1x?x4096xf16>) {
    ^bb0(%in: f16, %in_1222: f16, %out: f16):
      %2403 = arith.mulf %in, %in_1222 : f16
      %2404 = arith.addf %2403, %out : f16
      linalg.yield %2404 : f16
    } -> tensor<1x?x4096xf16>
    %expanded_6 = tensor.expand_shape %cst_220 [[0], [1, 2]] : tensor<4096x4096xi4> into tensor<4096x32x128xi4>
    %46 = linalg.generic {indexing_maps = [affine_map<(d0, d1, d2) -> (d0, d1, d2)>, affine_map<(d0, d1, d2) -> (d0, d1, 0)>, affine_map<(d0, d1, d2) -> (d0, d1, 0)>, affine_map<(d0, d1, d2) -> (d0, d1, d2)>], iterator_types = ["parallel", "parallel", "parallel"]} ins(%expanded_6, %cst_666, %cst_665 : tensor<4096x32x128xi4>, tensor<4096x32x1xf16>, tensor<4096x32x1xf16>) outs(%39 : tensor<4096x32x128xf16>) {
    ^bb0(%in: i4, %in_1222: f16, %in_1223: f16, %out: f16):
      %2403 = arith.extui %in : i4 to i32
      %2404 = arith.uitofp %2403 : i32 to f16
      %2405 = arith.subf %2404, %in_1223 : f16
      %2406 = arith.mulf %2405, %in_1222 : f16
      linalg.yield %2406 : f16
    } -> tensor<4096x32x128xf16>
    %47 = linalg.generic {indexing_maps = [affine_map<(d0, d1, d2, d3, d4) -> (d0, d1, d3, d4)>, affine_map<(d0, d1, d2, d3, d4) -> (d2, d3, d4)>, affine_map<(d0, d1, d2, d3, d4) -> (d0, d1, d2)>], iterator_types = ["parallel", "parallel", "parallel", "reduction", "reduction"]} ins(%expanded_2, %46 : tensor<1x?x32x128xf16>, tensor<4096x32x128xf16>) outs(%41 : tensor<1x?x4096xf16>) {
    ^bb0(%in: f16, %in_1222: f16, %out: f16):
      %2403 = arith.mulf %in, %in_1222 : f16
      %2404 = arith.addf %2403, %out : f16
      linalg.yield %2404 : f16
    } -> tensor<1x?x4096xf16>
    %cast = tensor.cast %43 : tensor<1x?x4096xf16> to tensor<1x?x4096xf16>
    %expanded_7 = tensor.expand_shape %cast [[0], [1], [2, 3]] : tensor<1x?x4096xf16> into tensor<1x?x32x128xf16>
    %48 = tensor.empty(%dim) : tensor<1x32x?x128xf16>
    %49 = linalg.generic {indexing_maps = [affine_map<(d0, d1, d2, d3) -> (d0, d1, d2, d3)>, affine_map<(d0, d1, d2, d3) -> (d0, d2, d1, d3)>], iterator_types = ["parallel", "parallel", "parallel", "parallel"]} ins(%expanded_7 : tensor<1x?x32x128xf16>) outs(%48 : tensor<1x32x?x128xf16>) {
    ^bb0(%in: f16, %out: f16):
      linalg.yield %in : f16
    } -> tensor<1x32x?x128xf16>
    %cast_8 = tensor.cast %45 : tensor<1x?x4096xf16> to tensor<1x?x4096xf16>
    %expanded_9 = tensor.expand_shape %cast_8 [[0], [1], [2, 3]] : tensor<1x?x4096xf16> into tensor<1x?x32x128xf16>
    %50 = linalg.generic {indexing_maps = [affine_map<(d0, d1, d2, d3) -> (d0, d1, d2, d3)>, affine_map<(d0, d1, d2, d3) -> (d0, d2, d1, d3)>], iterator_types = ["parallel", "parallel", "parallel", "parallel"]} ins(%expanded_9 : tensor<1x?x32x128xf16>) outs(%48 : tensor<1x32x?x128xf16>) {
    ^bb0(%in: f16, %out: f16):
      linalg.yield %in : f16
    } -> tensor<1x32x?x128xf16>
    %cast_10 = tensor.cast %47 : tensor<1x?x4096xf16> to tensor<1x?x4096xf16>
    %expanded_11 = tensor.expand_shape %cast_10 [[0], [1], [2, 3]] : tensor<1x?x4096xf16> into tensor<1x?x32x128xf16>
    %51 = linalg.generic {indexing_maps = [affine_map<(d0, d1, d2, d3) -> (d0, d1, d2, d3)>, affine_map<(d0, d1, d2, d3) -> (d0, d2, d1, d3)>], iterator_types = ["parallel", "parallel", "parallel", "parallel"]} ins(%expanded_11 : tensor<1x?x32x128xf16>) outs(%48 : tensor<1x32x?x128xf16>) {
    ^bb0(%in: f16, %out: f16):
      linalg.yield %in : f16
    } -> tensor<1x32x?x128xf16>
    %extracted_slice = tensor.extract_slice %cst_737[0, 0, 0, 0] [1, 1, %dim, 128] [1, 1, 1, 1] : tensor<1x1x4096x128xf16> to tensor<1x1x?x128xf16>
    %extracted_slice_12 = tensor.extract_slice %cst_736[0, 0, 0, 0] [1, 1, %dim, 128] [1, 1, 1, 1] : tensor<1x1x4096x128xf16> to tensor<1x1x?x128xf16>
    %collapsed = tensor.collapse_shape %extracted_slice [[0, 1, 2], [3]] : tensor<1x1x?x128xf16> into tensor<?x128xf16>
    %collapsed_13 = tensor.collapse_shape %extracted_slice_12 [[0, 1, 2], [3]] : tensor<1x1x?x128xf16> into tensor<?x128xf16>
    %52 = tensor.empty(%dim) : tensor<1x?x128xf16>
    %53 = linalg.generic {indexing_maps = [affine_map<(d0, d1, d2) -> (0, d1)>, affine_map<(d0, d1, d2) -> (d0, d1, d2)>], iterator_types = ["parallel", "parallel", "parallel"]} ins(%expanded : tensor<1x?xi64>) outs(%52 : tensor<1x?x128xf16>) {
    ^bb0(%in: i64, %out: f16):
      %2403 = arith.cmpi slt, %in, %c0_i64 : i64
      %2404 = arith.addi %in, %c19_i64 : i64
      %2405 = arith.select %2403, %2404, %in : i64
      %2406 = arith.index_cast %2405 : i64 to index
      %2407 = linalg.index 2 : index
      %extracted = tensor.extract %collapsed[%2406, %2407] : tensor<?x128xf16>
      linalg.yield %extracted : f16
    } -> tensor<1x?x128xf16>
    %expanded_14 = tensor.expand_shape %53 [[0], [1, 2], [3]] : tensor<1x?x128xf16> into tensor<1x1x?x128xf16>
    %54 = linalg.generic {indexing_maps = [affine_map<(d0, d1, d2) -> (0, d1)>, affine_map<(d0, d1, d2) -> (d0, d1, d2)>], iterator_types = ["parallel", "parallel", "parallel"]} ins(%expanded : tensor<1x?xi64>) outs(%52 : tensor<1x?x128xf16>) {
    ^bb0(%in: i64, %out: f16):
      %2403 = arith.cmpi slt, %in, %c0_i64 : i64
      %2404 = arith.addi %in, %c19_i64 : i64
      %2405 = arith.select %2403, %2404, %in : i64
      %2406 = arith.index_cast %2405 : i64 to index
      %2407 = linalg.index 2 : index
      %extracted = tensor.extract %collapsed_13[%2406, %2407] : tensor<?x128xf16>
      linalg.yield %extracted : f16
    } -> tensor<1x?x128xf16>
    %expanded_15 = tensor.expand_shape %54 [[0], [1, 2], [3]] : tensor<1x?x128xf16> into tensor<1x1x?x128xf16>
    %55 = linalg.generic {indexing_maps = [affine_map<(d0, d1, d2, d3) -> (0, d1, d2, d3)>, affine_map<(d0, d1, d2, d3) -> (0, 0, d2, d3)>, affine_map<(d0, d1, d2, d3) -> (d0, d1, d2, d3)>], iterator_types = ["parallel", "parallel", "parallel", "parallel"]} ins(%49, %expanded_14 : tensor<1x32x?x128xf16>, tensor<1x1x?x128xf16>) outs(%48 : tensor<1x32x?x128xf16>) {
    ^bb0(%in: f16, %in_1222: f16, %out: f16):
      %2403 = arith.mulf %in, %in_1222 : f16
      linalg.yield %2403 : f16
    } -> tensor<1x32x?x128xf16>
    %extracted_slice_16 = tensor.extract_slice %49[0, 0, 0, 0] [1, 32, %dim, 64] [1, 1, 1, 1] : tensor<1x32x?x128xf16> to tensor<1x32x?x64xf16>
    %extracted_slice_17 = tensor.extract_slice %49[0, 0, 0, 64] [1, 32, %dim, 64] [1, 1, 1, 1] : tensor<1x32x?x128xf16> to tensor<1x32x?x64xf16>
    %56 = tensor.empty(%dim) : tensor<1x32x?x64xf16>
    %57 = linalg.generic {indexing_maps = [affine_map<(d0, d1, d2, d3) -> (0, d1, d2, d3)>, affine_map<(d0, d1, d2, d3) -> (d0, d1, d2, d3)>], iterator_types = ["parallel", "parallel", "parallel", "parallel"]} ins(%extracted_slice_17 : tensor<1x32x?x64xf16>) outs(%56 : tensor<1x32x?x64xf16>) {
    ^bb0(%in: f16, %out: f16):
      %2403 = arith.negf %in : f16
      linalg.yield %2403 : f16
    } -> tensor<1x32x?x64xf16>
    %58 = linalg.generic {indexing_maps = [affine_map<(d0, d1, d2, d3) -> (0, d1, d2, d3)>, affine_map<(d0, d1, d2, d3) -> (d0, d1, d2, d3)>], iterator_types = ["parallel", "parallel", "parallel", "parallel"]} ins(%57 : tensor<1x32x?x64xf16>) outs(%56 : tensor<1x32x?x64xf16>) {
    ^bb0(%in: f16, %out: f16):
      linalg.yield %in : f16
    } -> tensor<1x32x?x64xf16>
    %59 = linalg.generic {indexing_maps = [affine_map<(d0, d1, d2, d3) -> (0, d1, d2, d3)>, affine_map<(d0, d1, d2, d3) -> (d0, d1, d2, d3)>], iterator_types = ["parallel", "parallel", "parallel", "parallel"]} ins(%extracted_slice_16 : tensor<1x32x?x64xf16>) outs(%56 : tensor<1x32x?x64xf16>) {
    ^bb0(%in: f16, %out: f16):
      linalg.yield %in : f16
    } -> tensor<1x32x?x64xf16>
    %inserted_slice = tensor.insert_slice %58 into %48[0, 0, 0, 0] [1, 32, %dim, 64] [1, 1, 1, 1] : tensor<1x32x?x64xf16> into tensor<1x32x?x128xf16>
    %inserted_slice_18 = tensor.insert_slice %59 into %inserted_slice[0, 0, 0, 64] [1, 32, %dim, 64] [1, 1, 1, 1] : tensor<1x32x?x64xf16> into tensor<1x32x?x128xf16>
    %60 = linalg.generic {indexing_maps = [affine_map<(d0, d1, d2, d3) -> (0, d1, d2, d3)>, affine_map<(d0, d1, d2, d3) -> (0, 0, d2, d3)>, affine_map<(d0, d1, d2, d3) -> (d0, d1, d2, d3)>], iterator_types = ["parallel", "parallel", "parallel", "parallel"]} ins(%inserted_slice_18, %expanded_15 : tensor<1x32x?x128xf16>, tensor<1x1x?x128xf16>) outs(%48 : tensor<1x32x?x128xf16>) {
    ^bb0(%in: f16, %in_1222: f16, %out: f16):
      %2403 = arith.mulf %in, %in_1222 : f16
      linalg.yield %2403 : f16
    } -> tensor<1x32x?x128xf16>
    %61 = linalg.generic {indexing_maps = [affine_map<(d0, d1, d2, d3) -> (0, d1, d2, d3)>, affine_map<(d0, d1, d2, d3) -> (0, d1, d2, d3)>, affine_map<(d0, d1, d2, d3) -> (d0, d1, d2, d3)>], iterator_types = ["parallel", "parallel", "parallel", "parallel"]} ins(%55, %60 : tensor<1x32x?x128xf16>, tensor<1x32x?x128xf16>) outs(%48 : tensor<1x32x?x128xf16>) {
    ^bb0(%in: f16, %in_1222: f16, %out: f16):
      %2403 = arith.addf %in, %in_1222 : f16
      linalg.yield %2403 : f16
    } -> tensor<1x32x?x128xf16>
    %62 = linalg.generic {indexing_maps = [affine_map<(d0, d1, d2, d3) -> (0, d1, d2, d3)>, affine_map<(d0, d1, d2, d3) -> (0, 0, d2, d3)>, affine_map<(d0, d1, d2, d3) -> (d0, d1, d2, d3)>], iterator_types = ["parallel", "parallel", "parallel", "parallel"]} ins(%50, %expanded_14 : tensor<1x32x?x128xf16>, tensor<1x1x?x128xf16>) outs(%48 : tensor<1x32x?x128xf16>) {
    ^bb0(%in: f16, %in_1222: f16, %out: f16):
      %2403 = arith.mulf %in, %in_1222 : f16
      linalg.yield %2403 : f16
    } -> tensor<1x32x?x128xf16>
    %extracted_slice_19 = tensor.extract_slice %50[0, 0, 0, 0] [1, 32, %dim, 64] [1, 1, 1, 1] : tensor<1x32x?x128xf16> to tensor<1x32x?x64xf16>
    %extracted_slice_20 = tensor.extract_slice %50[0, 0, 0, 64] [1, 32, %dim, 64] [1, 1, 1, 1] : tensor<1x32x?x128xf16> to tensor<1x32x?x64xf16>
    %63 = linalg.generic {indexing_maps = [affine_map<(d0, d1, d2, d3) -> (0, d1, d2, d3)>, affine_map<(d0, d1, d2, d3) -> (d0, d1, d2, d3)>], iterator_types = ["parallel", "parallel", "parallel", "parallel"]} ins(%extracted_slice_20 : tensor<1x32x?x64xf16>) outs(%56 : tensor<1x32x?x64xf16>) {
    ^bb0(%in: f16, %out: f16):
      %2403 = arith.negf %in : f16
      linalg.yield %2403 : f16
    } -> tensor<1x32x?x64xf16>
    %64 = linalg.generic {indexing_maps = [affine_map<(d0, d1, d2, d3) -> (0, d1, d2, d3)>, affine_map<(d0, d1, d2, d3) -> (d0, d1, d2, d3)>], iterator_types = ["parallel", "parallel", "parallel", "parallel"]} ins(%63 : tensor<1x32x?x64xf16>) outs(%56 : tensor<1x32x?x64xf16>) {
    ^bb0(%in: f16, %out: f16):
      linalg.yield %in : f16
    } -> tensor<1x32x?x64xf16>
    %65 = linalg.generic {indexing_maps = [affine_map<(d0, d1, d2, d3) -> (0, d1, d2, d3)>, affine_map<(d0, d1, d2, d3) -> (d0, d1, d2, d3)>], iterator_types = ["parallel", "parallel", "parallel", "parallel"]} ins(%extracted_slice_19 : tensor<1x32x?x64xf16>) outs(%56 : tensor<1x32x?x64xf16>) {
    ^bb0(%in: f16, %out: f16):
      linalg.yield %in : f16
    } -> tensor<1x32x?x64xf16>
    %inserted_slice_21 = tensor.insert_slice %64 into %48[0, 0, 0, 0] [1, 32, %dim, 64] [1, 1, 1, 1] : tensor<1x32x?x64xf16> into tensor<1x32x?x128xf16>
    %inserted_slice_22 = tensor.insert_slice %65 into %inserted_slice_21[0, 0, 0, 64] [1, 32, %dim, 64] [1, 1, 1, 1] : tensor<1x32x?x64xf16> into tensor<1x32x?x128xf16>
    %66 = linalg.generic {indexing_maps = [affine_map<(d0, d1, d2, d3) -> (0, d1, d2, d3)>, affine_map<(d0, d1, d2, d3) -> (0, 0, d2, d3)>, affine_map<(d0, d1, d2, d3) -> (d0, d1, d2, d3)>], iterator_types = ["parallel", "parallel", "parallel", "parallel"]} ins(%inserted_slice_22, %expanded_15 : tensor<1x32x?x128xf16>, tensor<1x1x?x128xf16>) outs(%48 : tensor<1x32x?x128xf16>) {
    ^bb0(%in: f16, %in_1222: f16, %out: f16):
      %2403 = arith.mulf %in, %in_1222 : f16
      linalg.yield %2403 : f16
    } -> tensor<1x32x?x128xf16>
    %67 = linalg.generic {indexing_maps = [affine_map<(d0, d1, d2, d3) -> (0, d1, d2, d3)>, affine_map<(d0, d1, d2, d3) -> (0, d1, d2, d3)>, affine_map<(d0, d1, d2, d3) -> (d0, d1, d2, d3)>], iterator_types = ["parallel", "parallel", "parallel", "parallel"]} ins(%62, %66 : tensor<1x32x?x128xf16>, tensor<1x32x?x128xf16>) outs(%48 : tensor<1x32x?x128xf16>) {
    ^bb0(%in: f16, %in_1222: f16, %out: f16):
      %2403 = arith.addf %in, %in_1222 : f16
      linalg.yield %2403 : f16
    } -> tensor<1x32x?x128xf16>
    %68 = tensor.empty(%dim) : tensor<1x32x128x?xf16>
    %69 = linalg.generic {indexing_maps = [affine_map<(d0, d1, d2, d3) -> (d0, d1, d2, d3)>, affine_map<(d0, d1, d2, d3) -> (d0, d1, d3, d2)>], iterator_types = ["parallel", "parallel", "parallel", "parallel"]} ins(%67 : tensor<1x32x?x128xf16>) outs(%68 : tensor<1x32x128x?xf16>) {
    ^bb0(%in: f16, %out: f16):
      linalg.yield %in : f16
    } -> tensor<1x32x128x?xf16>
    %collapsed_23 = tensor.collapse_shape %61 [[0, 1], [2], [3]] : tensor<1x32x?x128xf16> into tensor<32x?x128xf16>
    %collapsed_24 = tensor.collapse_shape %69 [[0, 1], [2], [3]] : tensor<1x32x128x?xf16> into tensor<32x128x?xf16>
    %70 = tensor.empty(%dim, %dim) : tensor<32x?x?xf16>
    %71 = linalg.fill ins(%cst_740 : f16) outs(%70 : tensor<32x?x?xf16>) -> tensor<32x?x?xf16>
    %72 = linalg.batch_matmul ins(%collapsed_23, %collapsed_24 : tensor<32x?x128xf16>, tensor<32x128x?xf16>) outs(%71 : tensor<32x?x?xf16>) -> tensor<32x?x?xf16>
    %expanded_25 = tensor.expand_shape %72 [[0, 1], [2], [3]] : tensor<32x?x?xf16> into tensor<1x32x?x?xf16>
    %73 = tensor.empty(%dim, %dim) : tensor<1x32x?x?xf16>
    %74 = linalg.generic {indexing_maps = [affine_map<(d0, d1, d2, d3) -> (0, d1, d2, d3)>, affine_map<(d0, d1, d2, d3) -> (d0, d1, d2, d3)>], iterator_types = ["parallel", "parallel", "parallel", "parallel"]} ins(%expanded_25 : tensor<1x32x?x?xf16>) outs(%73 : tensor<1x32x?x?xf16>) {
    ^bb0(%in: f16, %out: f16):
      %2403 = arith.truncf %cst_746 : f64 to f16
      %2404 = arith.divf %in, %2403 : f16
      linalg.yield %2404 : f16
    } -> tensor<1x32x?x?xf16>
    %75 = linalg.generic {indexing_maps = [affine_map<(d0, d1, d2, d3) -> (0, d1, d2, d3)>, affine_map<(d0, d1, d2, d3) -> (0, 0, d2, d3)>, affine_map<(d0, d1, d2, d3) -> (d0, d1, d2, d3)>], iterator_types = ["parallel", "parallel", "parallel", "parallel"]} ins(%74, %24 : tensor<1x32x?x?xf16>, tensor<1x1x?x?xf16>) outs(%73 : tensor<1x32x?x?xf16>) {
    ^bb0(%in: f16, %in_1222: f16, %out: f16):
      %2403 = arith.addf %in, %in_1222 : f16
      linalg.yield %2403 : f16
    } -> tensor<1x32x?x?xf16>
    %76 = tensor.empty(%dim) : tensor<1x32x?x1xi64>
    %77 = linalg.fill ins(%c0_i64 : i64) outs(%76 : tensor<1x32x?x1xi64>) -> tensor<1x32x?x1xi64>
    %78 = tensor.empty(%dim) : tensor<1x32x?x1xf16>
    %79 = linalg.fill ins(%cst_742 : f16) outs(%78 : tensor<1x32x?x1xf16>) -> tensor<1x32x?x1xf16>
    %80:2 = linalg.generic {indexing_maps = [affine_map<(d0, d1, d2, d3) -> (d0, d1, d2, d3)>, affine_map<(d0, d1, d2, d3) -> (d0, d1, d2, 0)>, affine_map<(d0, d1, d2, d3) -> (d0, d1, d2, 0)>], iterator_types = ["parallel", "parallel", "parallel", "reduction"]} ins(%75 : tensor<1x32x?x?xf16>) outs(%79, %77 : tensor<1x32x?x1xf16>, tensor<1x32x?x1xi64>) {
    ^bb0(%in: f16, %out: f16, %out_1222: i64):
      %2403 = linalg.index 3 : index
      %2404 = arith.index_cast %2403 : index to i64
      %2405 = arith.maximumf %in, %out : f16
      %2406 = arith.cmpf ogt, %in, %out : f16
      %2407 = arith.select %2406, %2404, %out_1222 : i64
      linalg.yield %2405, %2407 : f16, i64
    } -> (tensor<1x32x?x1xf16>, tensor<1x32x?x1xi64>)
    %81 = linalg.generic {indexing_maps = [affine_map<(d0, d1, d2, d3) -> (0, d1, d2, d3)>, affine_map<(d0, d1, d2, d3) -> (0, d1, d2, 0)>, affine_map<(d0, d1, d2, d3) -> (d0, d1, d2, d3)>], iterator_types = ["parallel", "parallel", "parallel", "parallel"]} ins(%75, %80#0 : tensor<1x32x?x?xf16>, tensor<1x32x?x1xf16>) outs(%73 : tensor<1x32x?x?xf16>) {
    ^bb0(%in: f16, %in_1222: f16, %out: f16):
      %2403 = arith.subf %in, %in_1222 : f16
      linalg.yield %2403 : f16
    } -> tensor<1x32x?x?xf16>
    %82 = linalg.generic {indexing_maps = [affine_map<(d0, d1, d2, d3) -> (0, d1, d2, d3)>, affine_map<(d0, d1, d2, d3) -> (d0, d1, d2, d3)>], iterator_types = ["parallel", "parallel", "parallel", "parallel"]} ins(%81 : tensor<1x32x?x?xf16>) outs(%73 : tensor<1x32x?x?xf16>) {
    ^bb0(%in: f16, %out: f16):
      %2403 = math.exp %in : f16
      linalg.yield %2403 : f16
    } -> tensor<1x32x?x?xf16>
    %83 = linalg.fill ins(%cst_740 : f16) outs(%78 : tensor<1x32x?x1xf16>) -> tensor<1x32x?x1xf16>
    %84 = linalg.generic {indexing_maps = [affine_map<(d0, d1, d2, d3) -> (d0, d1, d2, d3)>, affine_map<(d0, d1, d2, d3) -> (d0, d1, d2, 0)>], iterator_types = ["parallel", "parallel", "parallel", "reduction"]} ins(%82 : tensor<1x32x?x?xf16>) outs(%83 : tensor<1x32x?x1xf16>) {
    ^bb0(%in: f16, %out: f16):
      %2403 = arith.addf %in, %out : f16
      linalg.yield %2403 : f16
    } -> tensor<1x32x?x1xf16>
    %85 = linalg.generic {indexing_maps = [affine_map<(d0, d1, d2, d3) -> (0, d1, d2, d3)>, affine_map<(d0, d1, d2, d3) -> (0, d1, d2, 0)>, affine_map<(d0, d1, d2, d3) -> (d0, d1, d2, d3)>], iterator_types = ["parallel", "parallel", "parallel", "parallel"]} ins(%82, %84 : tensor<1x32x?x?xf16>, tensor<1x32x?x1xf16>) outs(%73 : tensor<1x32x?x?xf16>) {
    ^bb0(%in: f16, %in_1222: f16, %out: f16):
      %2403 = arith.divf %in, %in_1222 : f16
      linalg.yield %2403 : f16
    } -> tensor<1x32x?x?xf16>
    %collapsed_26 = tensor.collapse_shape %85 [[0, 1], [2], [3]] : tensor<1x32x?x?xf16> into tensor<32x?x?xf16>
    %collapsed_27 = tensor.collapse_shape %51 [[0, 1], [2], [3]] : tensor<1x32x?x128xf16> into tensor<32x?x128xf16>
    %86 = tensor.empty(%dim) : tensor<32x?x128xf16>
    %87 = linalg.fill ins(%cst_740 : f16) outs(%86 : tensor<32x?x128xf16>) -> tensor<32x?x128xf16>
    %88 = linalg.batch_matmul ins(%collapsed_26, %collapsed_27 : tensor<32x?x?xf16>, tensor<32x?x128xf16>) outs(%87 : tensor<32x?x128xf16>) -> tensor<32x?x128xf16>
    %expanded_28 = tensor.expand_shape %88 [[0, 1], [2], [3]] : tensor<32x?x128xf16> into tensor<1x32x?x128xf16>
    %89 = tensor.empty(%dim) : tensor<1x?x32x128xf16>
    %90 = linalg.generic {indexing_maps = [affine_map<(d0, d1, d2, d3) -> (d0, d1, d2, d3)>, affine_map<(d0, d1, d2, d3) -> (d0, d2, d1, d3)>], iterator_types = ["parallel", "parallel", "parallel", "parallel"]} ins(%expanded_28 : tensor<1x32x?x128xf16>) outs(%89 : tensor<1x?x32x128xf16>) {
    ^bb0(%in: f16, %out: f16):
      linalg.yield %in : f16
    } -> tensor<1x?x32x128xf16>
    %91 = linalg.generic {indexing_maps = [affine_map<(d0, d1, d2, d3) -> (0, d1, d2, d3)>, affine_map<(d0, d1, d2, d3) -> (d0, d1, d2, d3)>], iterator_types = ["parallel", "parallel", "parallel", "parallel"]} ins(%90 : tensor<1x?x32x128xf16>) outs(%89 : tensor<1x?x32x128xf16>) {
    ^bb0(%in: f16, %out: f16):
      linalg.yield %in : f16
    } -> tensor<1x?x32x128xf16>
    %collapsed_29 = tensor.collapse_shape %91 [[0], [1], [2, 3]] : tensor<1x?x32x128xf16> into tensor<1x?x4096xf16>
    %expanded_30 = tensor.expand_shape %collapsed_29 [[0], [1], [2, 3]] : tensor<1x?x4096xf16> into tensor<1x?x32x128xf16>
    %expanded_31 = tensor.expand_shape %cst_219 [[0], [1, 2]] : tensor<4096x4096xi4> into tensor<4096x32x128xi4>
    %92 = tensor.empty(%dim) : tensor<1x?x4096xf16>
    %93 = linalg.fill ins(%cst_740 : f16) outs(%92 : tensor<1x?x4096xf16>) -> tensor<1x?x4096xf16>
    %94 = linalg.generic {indexing_maps = [affine_map<(d0, d1, d2) -> (d0, d1, d2)>, affine_map<(d0, d1, d2) -> (d0, d1, 0)>, affine_map<(d0, d1, d2) -> (d0, d1, 0)>, affine_map<(d0, d1, d2) -> (d0, d1, d2)>], iterator_types = ["parallel", "parallel", "parallel"]} ins(%expanded_31, %cst_664, %cst_663 : tensor<4096x32x128xi4>, tensor<4096x32x1xf16>, tensor<4096x32x1xf16>) outs(%39 : tensor<4096x32x128xf16>) {
    ^bb0(%in: i4, %in_1222: f16, %in_1223: f16, %out: f16):
      %2403 = arith.extui %in : i4 to i32
      %2404 = arith.uitofp %2403 : i32 to f16
      %2405 = arith.subf %2404, %in_1223 : f16
      %2406 = arith.mulf %2405, %in_1222 : f16
      linalg.yield %2406 : f16
    } -> tensor<4096x32x128xf16>
    %95 = linalg.generic {indexing_maps = [affine_map<(d0, d1, d2, d3, d4) -> (d0, d1, d3, d4)>, affine_map<(d0, d1, d2, d3, d4) -> (d2, d3, d4)>, affine_map<(d0, d1, d2, d3, d4) -> (d0, d1, d2)>], iterator_types = ["parallel", "parallel", "parallel", "reduction", "reduction"]} ins(%expanded_30, %94 : tensor<1x?x32x128xf16>, tensor<4096x32x128xf16>) outs(%93 : tensor<1x?x4096xf16>) {
    ^bb0(%in: f16, %in_1222: f16, %out: f16):
      %2403 = arith.mulf %in, %in_1222 : f16
      %2404 = arith.addf %2403, %out : f16
      linalg.yield %2404 : f16
    } -> tensor<1x?x4096xf16>
    %96 = arith.cmpi eq, %dim, %dim : index
    cf.assert %96, "mismatched size for broadcast"
    %97 = linalg.generic {indexing_maps = [affine_map<(d0, d1, d2) -> (0, d1, d2)>, affine_map<(d0, d1, d2) -> (0, d1, d2)>, affine_map<(d0, d1, d2) -> (d0, d1, d2)>], iterator_types = ["parallel", "parallel", "parallel"]} ins(%3, %95 : tensor<1x?x4096xf16>, tensor<1x?x4096xf16>) outs(%2 : tensor<1x?x4096xf16>) {
    ^bb0(%in: f16, %in_1222: f16, %out: f16):
      %2403 = arith.addf %in, %in_1222 : f16
      linalg.yield %2403 : f16
    } -> tensor<1x?x4096xf16>
    cf.assert %26, "negative values not allowed in new dimensions"
    %98 = linalg.generic {indexing_maps = [affine_map<(d0, d1, d2) -> (0, d1, d2)>, affine_map<(d0, d1, d2) -> (d0, d1, d2)>], iterator_types = ["parallel", "parallel", "parallel"]} ins(%97 : tensor<1x?x4096xf16>) outs(%27 : tensor<1x?x4096xf32>) {
    ^bb0(%in: f16, %out: f32):
      %2403 = arith.extf %in : f16 to f32
      linalg.yield %2403 : f32
    } -> tensor<1x?x4096xf32>
    %99 = linalg.generic {indexing_maps = [affine_map<(d0, d1, d2) -> (0, d1, d2)>, affine_map<(d0, d1, d2) -> (d0, d1, d2)>], iterator_types = ["parallel", "parallel", "parallel"]} ins(%98 : tensor<1x?x4096xf32>) outs(%27 : tensor<1x?x4096xf32>) {
    ^bb0(%in: f32, %out: f32):
      %2403 = math.powf %in, %cst_747 : f32
      linalg.yield %2403 : f32
    } -> tensor<1x?x4096xf32>
    %100 = linalg.generic {indexing_maps = [affine_map<(d0, d1, d2) -> (d0, d1, d2)>, affine_map<(d0, d1, d2) -> (d0, d1, 0)>], iterator_types = ["parallel", "parallel", "reduction"]} ins(%99 : tensor<1x?x4096xf32>) outs(%31 : tensor<1x?x1xf32>) {
    ^bb0(%in: f32, %out: f32):
      %2403 = arith.addf %in, %out : f32
      linalg.yield %2403 : f32
    } -> tensor<1x?x1xf32>
    %101 = linalg.generic {indexing_maps = [affine_map<(d0, d1, d2) -> (0, d1, 0)>, affine_map<(d0, d1, d2) -> (d0, d1, d2)>], iterator_types = ["parallel", "parallel", "parallel"]} ins(%100 : tensor<1x?x1xf32>) outs(%30 : tensor<1x?x1xf32>) {
    ^bb0(%in: f32, %out: f32):
      %2403 = arith.divf %in, %cst_748 : f32
      linalg.yield %2403 : f32
    } -> tensor<1x?x1xf32>
    %102 = linalg.generic {indexing_maps = [affine_map<(d0, d1, d2) -> (0, d1, 0)>, affine_map<(d0, d1, d2) -> (d0, d1, d2)>], iterator_types = ["parallel", "parallel", "parallel"]} ins(%101 : tensor<1x?x1xf32>) outs(%30 : tensor<1x?x1xf32>) {
    ^bb0(%in: f32, %out: f32):
      %2403 = arith.truncf %cst_745 : f64 to f32
      %2404 = arith.addf %in, %2403 : f32
      linalg.yield %2404 : f32
    } -> tensor<1x?x1xf32>
    %103 = linalg.generic {indexing_maps = [affine_map<(d0, d1, d2) -> (0, d1, 0)>, affine_map<(d0, d1, d2) -> (d0, d1, d2)>], iterator_types = ["parallel", "parallel", "parallel"]} ins(%102 : tensor<1x?x1xf32>) outs(%30 : tensor<1x?x1xf32>) {
    ^bb0(%in: f32, %out: f32):
      %2403 = math.rsqrt %in : f32
      linalg.yield %2403 : f32
    } -> tensor<1x?x1xf32>
    %104 = linalg.generic {indexing_maps = [affine_map<(d0, d1, d2) -> (0, d1, d2)>, affine_map<(d0, d1, d2) -> (0, d1, 0)>, affine_map<(d0, d1, d2) -> (d0, d1, d2)>], iterator_types = ["parallel", "parallel", "parallel"]} ins(%97, %103 : tensor<1x?x4096xf16>, tensor<1x?x1xf32>) outs(%27 : tensor<1x?x4096xf32>) {
    ^bb0(%in: f16, %in_1222: f32, %out: f32):
      %2403 = arith.extf %in : f16 to f32
      %2404 = arith.mulf %2403, %in_1222 : f32
      linalg.yield %2404 : f32
    } -> tensor<1x?x4096xf32>
    cf.assert %26, "negative values not allowed in new dimensions"
    %105 = linalg.generic {indexing_maps = [affine_map<(d0, d1, d2) -> (0, d1, d2)>, affine_map<(d0, d1, d2) -> (d0, d1, d2)>], iterator_types = ["parallel", "parallel", "parallel"]} ins(%104 : tensor<1x?x4096xf32>) outs(%2 : tensor<1x?x4096xf16>) {
    ^bb0(%in: f32, %out: f16):
      %2403 = arith.truncf %in : f32 to f16
      linalg.yield %2403 : f16
    } -> tensor<1x?x4096xf16>
    %106 = linalg.generic {indexing_maps = [affine_map<(d0, d1, d2) -> (d2)>, affine_map<(d0, d1, d2) -> (0, d1, d2)>, affine_map<(d0, d1, d2) -> (d0, d1, d2)>], iterator_types = ["parallel", "parallel", "parallel"]} ins(%cst_735, %105 : tensor<4096xf16>, tensor<1x?x4096xf16>) outs(%2 : tensor<1x?x4096xf16>) {
    ^bb0(%in: f16, %in_1222: f16, %out: f16):
      %2403 = arith.mulf %in, %in_1222 : f16
      linalg.yield %2403 : f16
    } -> tensor<1x?x4096xf16>
    %expanded_32 = tensor.expand_shape %106 [[0], [1], [2, 3]] : tensor<1x?x4096xf16> into tensor<1x?x32x128xf16>
    %expanded_33 = tensor.expand_shape %cst_218 [[0], [1, 2]] : tensor<11008x4096xi4> into tensor<11008x32x128xi4>
    %107 = tensor.empty() : tensor<11008x32x128xf16>
    %dim_34 = tensor.dim %106, %c1 : tensor<1x?x4096xf16>
    %108 = tensor.empty(%dim_34) : tensor<1x?x11008xf16>
    %109 = linalg.fill ins(%cst_740 : f16) outs(%108 : tensor<1x?x11008xf16>) -> tensor<1x?x11008xf16>
    %110 = linalg.generic {indexing_maps = [affine_map<(d0, d1, d2) -> (d0, d1, d2)>, affine_map<(d0, d1, d2) -> (d0, d1, 0)>, affine_map<(d0, d1, d2) -> (d0, d1, 0)>, affine_map<(d0, d1, d2) -> (d0, d1, d2)>], iterator_types = ["parallel", "parallel", "parallel"]} ins(%expanded_33, %cst_662, %cst_661 : tensor<11008x32x128xi4>, tensor<11008x32x1xf16>, tensor<11008x32x1xf16>) outs(%107 : tensor<11008x32x128xf16>) {
…
      linalg.yield %2398 : f16
    } -> tensor<11008x32x128xf16>
    %2299 = linalg.generic {indexing_maps = [affine_map<(d0, d1, d2, d3, d4) -> (d0, d1, d3, d4)>, affine_map<(d0, d1, d2, d3, d4) -> (d2, d3, d4)>, affine_map<(d0, d1, d2, d3, d4) -> (d0, d1, d2)>], iterator_types = ["parallel", "parallel", "parallel", "reduction", "reduction"]} ins(%expanded_1145, %2298 : tensor<1x1x32x128xf16>, tensor<11008x32x128xf16>) outs(%106 : tensor<1x1x11008xf16>) {
    ^bb0(%in: f16, %in_1189: f16, %out: f16):
      %2395 = arith.mulf %in, %in_1189 : f16
      %2396 = arith.addf %2395, %out : f16
      linalg.yield %2396 : f16
    } -> tensor<1x1x11008xf16>
    %2300 = linalg.generic {indexing_maps = [affine_map<(d0, d1, d2) -> (0, 0, d2)>, affine_map<(d0, d1, d2) -> (d0, d1, d2)>], iterator_types = ["parallel", "parallel", "parallel"]} ins(%2299 : tensor<1x1x11008xf16>) outs(%105 : tensor<1x1x11008xf16>) {
    ^bb0(%in: f16, %out: f16):
      %2395 = arith.negf %in : f16
      %2396 = math.exp %2395 : f16
      %2397 = arith.addf %2396, %cst_743 : f16
      %2398 = arith.divf %cst_743, %2397 : f16
      linalg.yield %2398 : f16
    } -> tensor<1x1x11008xf16>
    %2301 = linalg.generic {indexing_maps = [affine_map<(d0, d1, d2) -> (0, 0, d2)>, affine_map<(d0, d1, d2) -> (0, 0, d2)>, affine_map<(d0, d1, d2) -> (d0, d1, d2)>], iterator_types = ["parallel", "parallel", "parallel"]} ins(%2300, %2299 : tensor<1x1x11008xf16>, tensor<1x1x11008xf16>) outs(%105 : tensor<1x1x11008xf16>) {
    ^bb0(%in: f16, %in_1189: f16, %out: f16):
      %2395 = arith.mulf %in, %in_1189 : f16
      linalg.yield %2395 : f16
    } -> tensor<1x1x11008xf16>
    %expanded_1147 = tensor.expand_shape %cst_7 [[0], [1, 2]] : tensor<11008x4096xi4> into tensor<11008x32x128xi4>
    %2302 = linalg.generic {indexing_maps = [affine_map<(d0, d1, d2) -> (d0, d1, d2)>, affine_map<(d0, d1, d2) -> (d0, d1, 0)>, affine_map<(d0, d1, d2) -> (d0, d1, 0)>, affine_map<(d0, d1, d2) -> (d0, d1, d2)>], iterator_types = ["parallel", "parallel", "parallel"]} ins(%expanded_1147, %cst_240, %cst_239 : tensor<11008x32x128xi4>, tensor<11008x32x1xf16>, tensor<11008x32x1xf16>) outs(%104 : tensor<11008x32x128xf16>) {
    ^bb0(%in: i4, %in_1189: f16, %in_1190: f16, %out: f16):
      %2395 = arith.extui %in : i4 to i32
      %2396 = arith.uitofp %2395 : i32 to f16
      %2397 = arith.subf %2396, %in_1190 : f16
      %2398 = arith.mulf %2397, %in_1189 : f16
      linalg.yield %2398 : f16
    } -> tensor<11008x32x128xf16>
    %2303 = linalg.generic {indexing_maps = [affine_map<(d0, d1, d2, d3, d4) -> (d0, d1, d3, d4)>, affine_map<(d0, d1, d2, d3, d4) -> (d2, d3, d4)>, affine_map<(d0, d1, d2, d3, d4) -> (d0, d1, d2)>], iterator_types = ["parallel", "parallel", "parallel", "reduction", "reduction"]} ins(%expanded_1145, %2302 : tensor<1x1x32x128xf16>, tensor<11008x32x128xf16>) outs(%106 : tensor<1x1x11008xf16>) {
    ^bb0(%in: f16, %in_1189: f16, %out: f16):
      %2395 = arith.mulf %in, %in_1189 : f16
      %2396 = arith.addf %2395, %out : f16
      linalg.yield %2396 : f16
    } -> tensor<1x1x11008xf16>
    %2304 = linalg.generic {indexing_maps = [affine_map<(d0, d1, d2) -> (0, 0, d2)>, affine_map<(d0, d1, d2) -> (0, 0, d2)>, affine_map<(d0, d1, d2) -> (d0, d1, d2)>], iterator_types = ["parallel", "parallel", "parallel"]} ins(%2301, %2303 : tensor<1x1x11008xf16>, tensor<1x1x11008xf16>) outs(%105 : tensor<1x1x11008xf16>) {
    ^bb0(%in: f16, %in_1189: f16, %out: f16):
      %2395 = arith.mulf %in, %in_1189 : f16
      linalg.yield %2395 : f16
    } -> tensor<1x1x11008xf16>
    %expanded_1148 = tensor.expand_shape %2304 [[0], [1], [2, 3]] : tensor<1x1x11008xf16> into tensor<1x1x86x128xf16>
    %expanded_1149 = tensor.expand_shape %cst_6 [[0], [1, 2]] : tensor<4096x11008xi4> into tensor<4096x86x128xi4>
    %2305 = linalg.generic {indexing_maps = [affine_map<(d0, d1, d2) -> (d0, d1, d2)>, affine_map<(d0, d1, d2) -> (d0, d1, 0)>, affine_map<(d0, d1, d2) -> (d0, d1, 0)>, affine_map<(d0, d1, d2) -> (d0, d1, d2)>], iterator_types = ["parallel", "parallel", "parallel"]} ins(%expanded_1149, %cst_238, %cst_237 : tensor<4096x86x128xi4>, tensor<4096x86x1xf16>, tensor<4096x86x1xf16>) outs(%114 : tensor<4096x86x128xf16>) {
    ^bb0(%in: i4, %in_1189: f16, %in_1190: f16, %out: f16):
      %2395 = arith.extui %in : i4 to i32
      %2396 = arith.uitofp %2395 : i32 to f16
      %2397 = arith.subf %2396, %in_1190 : f16
      %2398 = arith.mulf %2397, %in_1189 : f16
      linalg.yield %2398 : f16
    } -> tensor<4096x86x128xf16>
    %2306 = linalg.generic {indexing_maps = [affine_map<(d0, d1, d2, d3, d4) -> (d0, d1, d3, d4)>, affine_map<(d0, d1, d2, d3, d4) -> (d2, d3, d4)>, affine_map<(d0, d1, d2, d3, d4) -> (d0, d1, d2)>], iterator_types = ["parallel", "parallel", "parallel", "reduction", "reduction"]} ins(%expanded_1148, %2305 : tensor<1x1x86x128xf16>, tensor<4096x86x128xf16>) outs(%32 : tensor<1x1x4096xf16>) {
    ^bb0(%in: f16, %in_1189: f16, %out: f16):
      %2395 = arith.mulf %in, %in_1189 : f16
      %2396 = arith.addf %2395, %out : f16
      linalg.yield %2396 : f16
    } -> tensor<1x1x4096xf16>
    %2307 = linalg.generic {indexing_maps = [affine_map<(d0, d1, d2) -> (0, 0, d2)>, affine_map<(d0, d1, d2) -> (0, 0, d2)>, affine_map<(d0, d1, d2) -> (d0, d1, d2)>], iterator_types = ["parallel", "parallel", "parallel"]} ins(%2288, %2306 : tensor<1x1x4096xf16>, tensor<1x1x4096xf16>) outs(%5 : tensor<1x1x4096xf16>) {
    ^bb0(%in: f16, %in_1189: f16, %out: f16):
      %2395 = arith.addf %in, %in_1189 : f16
      linalg.yield %2395 : f16
    } -> tensor<1x1x4096xf16>
    %2308 = linalg.generic {indexing_maps = [affine_map<(d0, d1, d2) -> (0, 0, d2)>, affine_map<(d0, d1, d2) -> (d0, d1, d2)>], iterator_types = ["parallel", "parallel", "parallel"]} ins(%2307 : tensor<1x1x4096xf16>) outs(%19 : tensor<1x1x4096xf32>) {
    ^bb0(%in: f16, %out: f32):
      %2395 = arith.extf %in : f16 to f32
      linalg.yield %2395 : f32
    } -> tensor<1x1x4096xf32>
    %2309 = linalg.generic {indexing_maps = [affine_map<(d0, d1, d2) -> (0, 0, d2)>, affine_map<(d0, d1, d2) -> (d0, d1, d2)>], iterator_types = ["parallel", "parallel", "parallel"]} ins(%2308 : tensor<1x1x4096xf32>) outs(%19 : tensor<1x1x4096xf32>) {
    ^bb0(%in: f32, %out: f32):
      %2395 = math.powf %in, %cst_747 : f32
      linalg.yield %2395 : f32
    } -> tensor<1x1x4096xf32>
    %2310 = linalg.generic {indexing_maps = [affine_map<(d0, d1, d2) -> (d0, d1, d2)>, affine_map<(d0, d1, d2) -> (d0, d1, 0)>], iterator_types = ["parallel", "parallel", "reduction"]} ins(%2309 : tensor<1x1x4096xf32>) outs(%23 : tensor<1x1x1xf32>) {
    ^bb0(%in: f32, %out: f32):
      %2395 = arith.addf %in, %out : f32
      linalg.yield %2395 : f32
    } -> tensor<1x1x1xf32>
    %2311 = linalg.generic {indexing_maps = [affine_map<(d0, d1, d2) -> (0, 0, 0)>, affine_map<(d0, d1, d2) -> (d0, d1, d2)>], iterator_types = ["parallel", "parallel", "parallel"]} ins(%2310 : tensor<1x1x1xf32>) outs(%22 : tensor<1x1x1xf32>) {
    ^bb0(%in: f32, %out: f32):
      %2395 = arith.divf %in, %cst_748 : f32
      linalg.yield %2395 : f32
    } -> tensor<1x1x1xf32>
    %2312 = linalg.generic {indexing_maps = [affine_map<(d0, d1, d2) -> (0, 0, 0)>, affine_map<(d0, d1, d2) -> (d0, d1, d2)>], iterator_types = ["parallel", "parallel", "parallel"]} ins(%2311 : tensor<1x1x1xf32>) outs(%22 : tensor<1x1x1xf32>) {
    ^bb0(%in: f32, %out: f32):
      %2395 = arith.truncf %cst_745 : f64 to f32
      %2396 = arith.addf %in, %2395 : f32
      linalg.yield %2396 : f32
    } -> tensor<1x1x1xf32>
    %2313 = linalg.generic {indexing_maps = [affine_map<(d0, d1, d2) -> (0, 0, 0)>, affine_map<(d0, d1, d2) -> (d0, d1, d2)>], iterator_types = ["parallel", "parallel", "parallel"]} ins(%2312 : tensor<1x1x1xf32>) outs(%22 : tensor<1x1x1xf32>) {
    ^bb0(%in: f32, %out: f32):
      %2395 = math.rsqrt %in : f32
      linalg.yield %2395 : f32
    } -> tensor<1x1x1xf32>
    %2314 = linalg.generic {indexing_maps = [affine_map<(d0, d1, d2) -> (0, 0, d2)>, affine_map<(d0, d1, d2) -> (0, 0, 0)>, affine_map<(d0, d1, d2) -> (d0, d1, d2)>], iterator_types = ["parallel", "parallel", "parallel"]} ins(%2307, %2313 : tensor<1x1x4096xf16>, tensor<1x1x1xf32>) outs(%19 : tensor<1x1x4096xf32>) {
    ^bb0(%in: f16, %in_1189: f32, %out: f32):
      %2395 = arith.extf %in : f16 to f32
      %2396 = arith.mulf %2395, %in_1189 : f32
      linalg.yield %2396 : f32
    } -> tensor<1x1x4096xf32>
    %2315 = linalg.generic {indexing_maps = [affine_map<(d0, d1, d2) -> (0, 0, d2)>, affine_map<(d0, d1, d2) -> (d0, d1, d2)>], iterator_types = ["parallel", "parallel", "parallel"]} ins(%2314 : tensor<1x1x4096xf32>) outs(%5 : tensor<1x1x4096xf16>) {
    ^bb0(%in: f32, %out: f16):
      %2395 = arith.truncf %in : f32 to f16
      linalg.yield %2395 : f16
    } -> tensor<1x1x4096xf16>
    %2316 = linalg.generic {indexing_maps = [affine_map<(d0, d1, d2) -> (d2)>, affine_map<(d0, d1, d2) -> (0, 0, d2)>, affine_map<(d0, d1, d2) -> (d0, d1, d2)>], iterator_types = ["parallel", "parallel", "parallel"]} ins(%cst_674, %2315 : tensor<4096xf16>, tensor<1x1x4096xf16>) outs(%5 : tensor<1x1x4096xf16>) {
    ^bb0(%in: f16, %in_1189: f16, %out: f16):
      %2395 = arith.mulf %in, %in_1189 : f16
      linalg.yield %2395 : f16
    } -> tensor<1x1x4096xf16>
    %expanded_1150 = tensor.expand_shape %2316 [[0], [1], [2, 3]] : tensor<1x1x4096xf16> into tensor<1x1x32x128xf16>
    %expanded_1151 = tensor.expand_shape %cst_5 [[0], [1, 2]] : tensor<4096x4096xi4> into tensor<4096x32x128xi4>
    %2317 = linalg.generic {indexing_maps = [affine_map<(d0, d1, d2) -> (d0, d1, d2)>, affine_map<(d0, d1, d2) -> (d0, d1, 0)>, affine_map<(d0, d1, d2) -> (d0, d1, 0)>, affine_map<(d0, d1, d2) -> (d0, d1, d2)>], iterator_types = ["parallel", "parallel", "parallel"]} ins(%expanded_1151, %cst_236, %cst_235 : tensor<4096x32x128xi4>, tensor<4096x32x1xf16>, tensor<4096x32x1xf16>) outs(%31 : tensor<4096x32x128xf16>) {
    ^bb0(%in: i4, %in_1189: f16, %in_1190: f16, %out: f16):
      %2395 = arith.extui %in : i4 to i32
      %2396 = arith.uitofp %2395 : i32 to f16
      %2397 = arith.subf %2396, %in_1190 : f16
      %2398 = arith.mulf %2397, %in_1189 : f16
      linalg.yield %2398 : f16
    } -> tensor<4096x32x128xf16>
    %2318 = linalg.generic {indexing_maps = [affine_map<(d0, d1, d2, d3, d4) -> (d0, d1, d3, d4)>, affine_map<(d0, d1, d2, d3, d4) -> (d2, d3, d4)>, affine_map<(d0, d1, d2, d3, d4) -> (d0, d1, d2)>], iterator_types = ["parallel", "parallel", "parallel", "reduction", "reduction"]} ins(%expanded_1150, %2317 : tensor<1x1x32x128xf16>, tensor<4096x32x128xf16>) outs(%32 : tensor<1x1x4096xf16>) {
    ^bb0(%in: f16, %in_1189: f16, %out: f16):
      %2395 = arith.mulf %in, %in_1189 : f16
      %2396 = arith.addf %2395, %out : f16
      linalg.yield %2396 : f16
    } -> tensor<1x1x4096xf16>
    %expanded_1152 = tensor.expand_shape %cst_4 [[0], [1, 2]] : tensor<4096x4096xi4> into tensor<4096x32x128xi4>
    %2319 = linalg.generic {indexing_maps = [affine_map<(d0, d1, d2) -> (d0, d1, d2)>, affine_map<(d0, d1, d2) -> (d0, d1, 0)>, affine_map<(d0, d1, d2) -> (d0, d1, 0)>, affine_map<(d0, d1, d2) -> (d0, d1, d2)>], iterator_types = ["parallel", "parallel", "parallel"]} ins(%expanded_1152, %cst_234, %cst_233 : tensor<4096x32x128xi4>, tensor<4096x32x1xf16>, tensor<4096x32x1xf16>) outs(%31 : tensor<4096x32x128xf16>) {
    ^bb0(%in: i4, %in_1189: f16, %in_1190: f16, %out: f16):
      %2395 = arith.extui %in : i4 to i32
      %2396 = arith.uitofp %2395 : i32 to f16
      %2397 = arith.subf %2396, %in_1190 : f16
      %2398 = arith.mulf %2397, %in_1189 : f16
      linalg.yield %2398 : f16
    } -> tensor<4096x32x128xf16>
    %2320 = linalg.generic {indexing_maps = [affine_map<(d0, d1, d2, d3, d4) -> (d0, d1, d3, d4)>, affine_map<(d0, d1, d2, d3, d4) -> (d2, d3, d4)>, affine_map<(d0, d1, d2, d3, d4) -> (d0, d1, d2)>], iterator_types = ["parallel", "parallel", "parallel", "reduction", "reduction"]} ins(%expanded_1150, %2319 : tensor<1x1x32x128xf16>, tensor<4096x32x128xf16>) outs(%32 : tensor<1x1x4096xf16>) {
    ^bb0(%in: f16, %in_1189: f16, %out: f16):
      %2395 = arith.mulf %in, %in_1189 : f16
      %2396 = arith.addf %2395, %out : f16
      linalg.yield %2396 : f16
    } -> tensor<1x1x4096xf16>
    %expanded_1153 = tensor.expand_shape %cst_3 [[0], [1, 2]] : tensor<4096x4096xi4> into tensor<4096x32x128xi4>
    %2321 = linalg.generic {indexing_maps = [affine_map<(d0, d1, d2) -> (d0, d1, d2)>, affine_map<(d0, d1, d2) -> (d0, d1, 0)>, affine_map<(d0, d1, d2) -> (d0, d1, 0)>, affine_map<(d0, d1, d2) -> (d0, d1, d2)>], iterator_types = ["parallel", "parallel", "parallel"]} ins(%expanded_1153, %cst_232, %cst_231 : tensor<4096x32x128xi4>, tensor<4096x32x1xf16>, tensor<4096x32x1xf16>) outs(%31 : tensor<4096x32x128xf16>) {
    ^bb0(%in: i4, %in_1189: f16, %in_1190: f16, %out: f16):
      %2395 = arith.extui %in : i4 to i32
      %2396 = arith.uitofp %2395 : i32 to f16
      %2397 = arith.subf %2396, %in_1190 : f16
      %2398 = arith.mulf %2397, %in_1189 : f16
      linalg.yield %2398 : f16
    } -> tensor<4096x32x128xf16>
    %2322 = linalg.generic {indexing_maps = [affine_map<(d0, d1, d2, d3, d4) -> (d0, d1, d3, d4)>, affine_map<(d0, d1, d2, d3, d4) -> (d2, d3, d4)>, affine_map<(d0, d1, d2, d3, d4) -> (d0, d1, d2)>], iterator_types = ["parallel", "parallel", "parallel", "reduction", "reduction"]} ins(%expanded_1150, %2321 : tensor<1x1x32x128xf16>, tensor<4096x32x128xf16>) outs(%32 : tensor<1x1x4096xf16>) {
    ^bb0(%in: f16, %in_1189: f16, %out: f16):
      %2395 = arith.mulf %in, %in_1189 : f16
      %2396 = arith.addf %2395, %out : f16
      linalg.yield %2396 : f16
    } -> tensor<1x1x4096xf16>
    %expanded_1154 = tensor.expand_shape %2318 [[0], [1], [2, 3]] : tensor<1x1x4096xf16> into tensor<1x1x32x128xf16>
    %2323 = linalg.generic {indexing_maps = [affine_map<(d0, d1, d2, d3) -> (d0, d1, d2, d3)>, affine_map<(d0, d1, d2, d3) -> (d0, d2, d1, d3)>], iterator_types = ["parallel", "parallel", "parallel", "parallel"]} ins(%expanded_1154 : tensor<1x1x32x128xf16>) outs(%39 : tensor<1x32x1x128xf16>) {
    ^bb0(%in: f16, %out: f16):
      linalg.yield %in : f16
    } -> tensor<1x32x1x128xf16>
    %expanded_1155 = tensor.expand_shape %2320 [[0], [1], [2, 3]] : tensor<1x1x4096xf16> into tensor<1x1x32x128xf16>
    %2324 = linalg.generic {indexing_maps = [affine_map<(d0, d1, d2, d3) -> (d0, d1, d2, d3)>, affine_map<(d0, d1, d2, d3) -> (d0, d2, d1, d3)>], iterator_types = ["parallel", "parallel", "parallel", "parallel"]} ins(%expanded_1155 : tensor<1x1x32x128xf16>) outs(%39 : tensor<1x32x1x128xf16>) {
    ^bb0(%in: f16, %out: f16):
      linalg.yield %in : f16
    } -> tensor<1x32x1x128xf16>
    %expanded_1156 = tensor.expand_shape %2322 [[0], [1], [2, 3]] : tensor<1x1x4096xf16> into tensor<1x1x32x128xf16>
    %2325 = linalg.generic {indexing_maps = [affine_map<(d0, d1, d2, d3) -> (d0, d1, d2, d3)>, affine_map<(d0, d1, d2, d3) -> (d0, d2, d1, d3)>], iterator_types = ["parallel", "parallel", "parallel", "parallel"]} ins(%expanded_1156 : tensor<1x1x32x128xf16>) outs(%39 : tensor<1x32x1x128xf16>) {
    ^bb0(%in: f16, %out: f16):
      linalg.yield %in : f16
    } -> tensor<1x32x1x128xf16>
    %2326 = linalg.generic {indexing_maps = [affine_map<(d0, d1, d2, d3) -> (0, d1, 0, d3)>, affine_map<(d0, d1, d2, d3) -> (0, 0, 0, d3)>, affine_map<(d0, d1, d2, d3) -> (d0, d1, d2, d3)>], iterator_types = ["parallel", "parallel", "parallel", "parallel"]} ins(%2323, %expanded_10 : tensor<1x32x1x128xf16>, tensor<1x1x1x128xf16>) outs(%39 : tensor<1x32x1x128xf16>) {
    ^bb0(%in: f16, %in_1189: f16, %out: f16):
      %2395 = arith.mulf %in, %in_1189 : f16
      linalg.yield %2395 : f16
    } -> tensor<1x32x1x128xf16>
    %extracted_slice_1157 = tensor.extract_slice %2323[0, 0, 0, 0] [1, 32, 1, 64] [1, 1, 1, 1] : tensor<1x32x1x128xf16> to tensor<1x32x1x64xf16>
    %extracted_slice_1158 = tensor.extract_slice %2323[0, 0, 0, 64] [1, 32, 1, 64] [1, 1, 1, 1] : tensor<1x32x1x128xf16> to tensor<1x32x1x64xf16>
    %2327 = linalg.generic {indexing_maps = [affine_map<(d0, d1, d2, d3) -> (0, d1, 0, d3)>, affine_map<(d0, d1, d2, d3) -> (d0, d1, d2, d3)>], iterator_types = ["parallel", "parallel", "parallel", "parallel"]} ins(%extracted_slice_1158 : tensor<1x32x1x64xf16>) outs(%47 : tensor<1x32x1x64xf16>) {
    ^bb0(%in: f16, %out: f16):
      %2395 = arith.negf %in : f16
      linalg.yield %2395 : f16
    } -> tensor<1x32x1x64xf16>
    %2328 = linalg.generic {indexing_maps = [affine_map<(d0, d1, d2, d3) -> (0, d1, 0, d3)>, affine_map<(d0, d1, d2, d3) -> (d0, d1, d2, d3)>], iterator_types = ["parallel", "parallel", "parallel", "parallel"]} ins(%2327 : tensor<1x32x1x64xf16>) outs(%47 : tensor<1x32x1x64xf16>) {
    ^bb0(%in: f16, %out: f16):
      linalg.yield %in : f16
    } -> tensor<1x32x1x64xf16>
    %2329 = linalg.generic {indexing_maps = [affine_map<(d0, d1, d2, d3) -> (0, d1, 0, d3)>, affine_map<(d0, d1, d2, d3) -> (d0, d1, d2, d3)>], iterator_types = ["parallel", "parallel", "parallel", "parallel"]} ins(%extracted_slice_1157 : tensor<1x32x1x64xf16>) outs(%47 : tensor<1x32x1x64xf16>) {
    ^bb0(%in: f16, %out: f16):
      linalg.yield %in : f16
    } -> tensor<1x32x1x64xf16>
    %inserted_slice_1159 = tensor.insert_slice %2328 into %39[0, 0, 0, 0] [1, 32, 1, 64] [1, 1, 1, 1] : tensor<1x32x1x64xf16> into tensor<1x32x1x128xf16>
    %inserted_slice_1160 = tensor.insert_slice %2329 into %inserted_slice_1159[0, 0, 0, 64] [1, 32, 1, 64] [1, 1, 1, 1] : tensor<1x32x1x64xf16> into tensor<1x32x1x128xf16>
    %2330 = linalg.generic {indexing_maps = [affine_map<(d0, d1, d2, d3) -> (0, d1, 0, d3)>, affine_map<(d0, d1, d2, d3) -> (0, 0, 0, d3)>, affine_map<(d0, d1, d2, d3) -> (d0, d1, d2, d3)>], iterator_types = ["parallel", "parallel", "parallel", "parallel"]} ins(%inserted_slice_1160, %expanded_11 : tensor<1x32x1x128xf16>, tensor<1x1x1x128xf16>) outs(%39 : tensor<1x32x1x128xf16>) {
    ^bb0(%in: f16, %in_1189: f16, %out: f16):
      %2395 = arith.mulf %in, %in_1189 : f16
      linalg.yield %2395 : f16
    } -> tensor<1x32x1x128xf16>
    %2331 = linalg.generic {indexing_maps = [affine_map<(d0, d1, d2, d3) -> (0, d1, 0, d3)>, affine_map<(d0, d1, d2, d3) -> (0, d1, 0, d3)>, affine_map<(d0, d1, d2, d3) -> (d0, d1, d2, d3)>], iterator_types = ["parallel", "parallel", "parallel", "parallel"]} ins(%2326, %2330 : tensor<1x32x1x128xf16>, tensor<1x32x1x128xf16>) outs(%39 : tensor<1x32x1x128xf16>) {
    ^bb0(%in: f16, %in_1189: f16, %out: f16):
      %2395 = arith.addf %in, %in_1189 : f16
      linalg.yield %2395 : f16
    } -> tensor<1x32x1x128xf16>
    %2332 = linalg.generic {indexing_maps = [affine_map<(d0, d1, d2, d3) -> (0, d1, 0, d3)>, affine_map<(d0, d1, d2, d3) -> (0, 0, 0, d3)>, affine_map<(d0, d1, d2, d3) -> (d0, d1, d2, d3)>], iterator_types = ["parallel", "parallel", "parallel", "parallel"]} ins(%2324, %expanded_10 : tensor<1x32x1x128xf16>, tensor<1x1x1x128xf16>) outs(%39 : tensor<1x32x1x128xf16>) {
    ^bb0(%in: f16, %in_1189: f16, %out: f16):
      %2395 = arith.mulf %in, %in_1189 : f16
      linalg.yield %2395 : f16
    } -> tensor<1x32x1x128xf16>
    %extracted_slice_1161 = tensor.extract_slice %2324[0, 0, 0, 0] [1, 32, 1, 64] [1, 1, 1, 1] : tensor<1x32x1x128xf16> to tensor<1x32x1x64xf16>
    %extracted_slice_1162 = tensor.extract_slice %2324[0, 0, 0, 64] [1, 32, 1, 64] [1, 1, 1, 1] : tensor<1x32x1x128xf16> to tensor<1x32x1x64xf16>
    %2333 = linalg.generic {indexing_maps = [affine_map<(d0, d1, d2, d3) -> (0, d1, 0, d3)>, affine_map<(d0, d1, d2, d3) -> (d0, d1, d2, d3)>], iterator_types = ["parallel", "parallel", "parallel", "parallel"]} ins(%extracted_slice_1162 : tensor<1x32x1x64xf16>) outs(%47 : tensor<1x32x1x64xf16>) {
    ^bb0(%in: f16, %out: f16):
      %2395 = arith.negf %in : f16
      linalg.yield %2395 : f16
    } -> tensor<1x32x1x64xf16>
    %2334 = linalg.generic {indexing_maps = [affine_map<(d0, d1, d2, d3) -> (0, d1, 0, d3)>, affine_map<(d0, d1, d2, d3) -> (d0, d1, d2, d3)>], iterator_types = ["parallel", "parallel", "parallel", "parallel"]} ins(%2333 : tensor<1x32x1x64xf16>) outs(%47 : tensor<1x32x1x64xf16>) {
    ^bb0(%in: f16, %out: f16):
      linalg.yield %in : f16
    } -> tensor<1x32x1x64xf16>
    %2335 = linalg.generic {indexing_maps = [affine_map<(d0, d1, d2, d3) -> (0, d1, 0, d3)>, affine_map<(d0, d1, d2, d3) -> (d0, d1, d2, d3)>], iterator_types = ["parallel", "parallel", "parallel", "parallel"]} ins(%extracted_slice_1161 : tensor<1x32x1x64xf16>) outs(%47 : tensor<1x32x1x64xf16>) {
    ^bb0(%in: f16, %out: f16):
      linalg.yield %in : f16
    } -> tensor<1x32x1x64xf16>
    %inserted_slice_1163 = tensor.insert_slice %2334 into %39[0, 0, 0, 0] [1, 32, 1, 64] [1, 1, 1, 1] : tensor<1x32x1x64xf16> into tensor<1x32x1x128xf16>
    %inserted_slice_1164 = tensor.insert_slice %2335 into %inserted_slice_1163[0, 0, 0, 64] [1, 32, 1, 64] [1, 1, 1, 1] : tensor<1x32x1x64xf16> into tensor<1x32x1x128xf16>
    %2336 = linalg.generic {indexing_maps = [affine_map<(d0, d1, d2, d3) -> (0, d1, 0, d3)>, affine_map<(d0, d1, d2, d3) -> (0, 0, 0, d3)>, affine_map<(d0, d1, d2, d3) -> (d0, d1, d2, d3)>], iterator_types = ["parallel", "parallel", "parallel", "parallel"]} ins(%inserted_slice_1164, %expanded_11 : tensor<1x32x1x128xf16>, tensor<1x1x1x128xf16>) outs(%39 : tensor<1x32x1x128xf16>) {
    ^bb0(%in: f16, %in_1189: f16, %out: f16):
      %2395 = arith.mulf %in, %in_1189 : f16
      linalg.yield %2395 : f16
    } -> tensor<1x32x1x128xf16>
    %2337 = linalg.generic {indexing_maps = [affine_map<(d0, d1, d2, d3) -> (0, d1, 0, d3)>, affine_map<(d0, d1, d2, d3) -> (0, d1, 0, d3)>, affine_map<(d0, d1, d2, d3) -> (d0, d1, d2, d3)>], iterator_types = ["parallel", "parallel", "parallel", "parallel"]} ins(%2332, %2336 : tensor<1x32x1x128xf16>, tensor<1x32x1x128xf16>) outs(%39 : tensor<1x32x1x128xf16>) {
    ^bb0(%in: f16, %in_1189: f16, %out: f16):
      %2395 = arith.addf %in, %in_1189 : f16
      linalg.yield %2395 : f16
    } -> tensor<1x32x1x128xf16>
    %dim_1165 = tensor.dim %arg63, %c2 : tensor<1x32x?x128xf16>
    %2338 = tensor.empty(%dim_1165) : tensor<1x32x?x128xf16>
    %2339 = linalg.generic {indexing_maps = [affine_map<(d0, d1, d2, d3) -> (0, d1, d2, d3)>, affine_map<(d0, d1, d2, d3) -> (d0, d1, d2, d3)>], iterator_types = ["parallel", "parallel", "parallel", "parallel"]} ins(%arg63 : tensor<1x32x?x128xf16>) outs(%2338 : tensor<1x32x?x128xf16>) {
    ^bb0(%in: f16, %out: f16):
      linalg.yield %in : f16
    } -> tensor<1x32x?x128xf16>
    %2340 = linalg.generic {indexing_maps = [affine_map<(d0, d1, d2, d3) -> (0, d1, 0, d3)>, affine_map<(d0, d1, d2, d3) -> (d0, d1, d2, d3)>], iterator_types = ["parallel", "parallel", "parallel", "parallel"]} ins(%2337 : tensor<1x32x1x128xf16>) outs(%39 : tensor<1x32x1x128xf16>) {
    ^bb0(%in: f16, %out: f16):
      linalg.yield %in : f16
    } -> tensor<1x32x1x128xf16>
    %2341 = arith.addi %dim_1165, %c1 : index
    %2342 = tensor.empty(%2341) : tensor<1x32x?x128xf16>
    %inserted_slice_1166 = tensor.insert_slice %2339 into %2342[0, 0, 0, 0] [1, 32, %dim_1165, 128] [1, 1, 1, 1] : tensor<1x32x?x128xf16> into tensor<1x32x?x128xf16>
    %inserted_slice_1167 = tensor.insert_slice %2340 into %inserted_slice_1166[0, 0, %dim_1165, 0] [1, 32, 1, 128] [1, 1, 1, 1] : tensor<1x32x1x128xf16> into tensor<1x32x?x128xf16>
    %dim_1168 = tensor.dim %arg64, %c2 : tensor<1x32x?x128xf16>
    %2343 = tensor.empty(%dim_1168) : tensor<1x32x?x128xf16>
    %2344 = linalg.generic {indexing_maps = [affine_map<(d0, d1, d2, d3) -> (0, d1, d2, d3)>, affine_map<(d0, d1, d2, d3) -> (d0, d1, d2, d3)>], iterator_types = ["parallel", "parallel", "parallel", "parallel"]} ins(%arg64 : tensor<1x32x?x128xf16>) outs(%2343 : tensor<1x32x?x128xf16>) {
    ^bb0(%in: f16, %out: f16):
      linalg.yield %in : f16
    } -> tensor<1x32x?x128xf16>
    %2345 = linalg.generic {indexing_maps = [affine_map<(d0, d1, d2, d3) -> (0, d1, 0, d3)>, affine_map<(d0, d1, d2, d3) -> (d0, d1, d2, d3)>], iterator_types = ["parallel", "parallel", "parallel", "parallel"]} ins(%2325 : tensor<1x32x1x128xf16>) outs(%39 : tensor<1x32x1x128xf16>) {
    ^bb0(%in: f16, %out: f16):
      linalg.yield %in : f16
    } -> tensor<1x32x1x128xf16>
    %2346 = arith.addi %dim_1168, %c1 : index
    %2347 = tensor.empty(%2346) : tensor<1x32x?x128xf16>
    %inserted_slice_1169 = tensor.insert_slice %2344 into %2347[0, 0, 0, 0] [1, 32, %dim_1168, 128] [1, 1, 1, 1] : tensor<1x32x?x128xf16> into tensor<1x32x?x128xf16>
    %inserted_slice_1170 = tensor.insert_slice %2345 into %inserted_slice_1169[0, 0, %dim_1168, 0] [1, 32, 1, 128] [1, 1, 1, 1] : tensor<1x32x1x128xf16> into tensor<1x32x?x128xf16>
    %cast_1171 = tensor.cast %inserted_slice_1167 : tensor<1x32x?x128xf16> to tensor<1x32x?x128xf16>
    %2348 = linalg.generic {indexing_maps = [affine_map<(d0, d1, d2, d3) -> (d0, d1, d2, d3)>, affine_map<(d0, d1, d2, d3) -> (d0, d1, d3, d2)>], iterator_types = ["parallel", "parallel", "parallel", "parallel"]} ins(%cast_1171 : tensor<1x32x?x128xf16>) outs(%69 : tensor<1x32x128x?xf16>) {
    ^bb0(%in: f16, %out: f16):
      linalg.yield %in : f16
    } -> tensor<1x32x128x?xf16>
    %collapsed_1172 = tensor.collapse_shape %2331 [[0, 1], [2], [3]] : tensor<1x32x1x128xf16> into tensor<32x1x128xf16>
    %collapsed_1173 = tensor.collapse_shape %2348 [[0, 1], [2], [3]] : tensor<1x32x128x?xf16> into tensor<32x128x?xf16>
    %2349 = linalg.batch_matmul ins(%collapsed_1172, %collapsed_1173 : tensor<32x1x128xf16>, tensor<32x128x?xf16>) outs(%72 : tensor<32x1x?xf16>) -> tensor<32x1x?xf16>
    %expanded_1174 = tensor.expand_shape %2349 [[0, 1], [2], [3]] : tensor<32x1x?xf16> into tensor<1x32x1x?xf16>
    %2350 = linalg.generic {indexing_maps = [affine_map<(d0, d1, d2, d3) -> (0, d1, 0, d3)>, affine_map<(d0, d1, d2, d3) -> (d0, d1, d2, d3)>], iterator_types = ["parallel", "parallel", "parallel", "parallel"]} ins(%expanded_1174 : tensor<1x32x1x?xf16>) outs(%74 : tensor<1x32x1x?xf16>) {
    ^bb0(%in: f16, %out: f16):
      %2395 = arith.truncf %cst_746 : f64 to f16
      %2396 = arith.divf %in, %2395 : f16
      linalg.yield %2396 : f16
    } -> tensor<1x32x1x?xf16>
    %2351 = linalg.generic {indexing_maps = [affine_map<(d0, d1, d2, d3) -> (0, d1, 0, d3)>, affine_map<(d0, d1, d2, d3) -> (0, 0, 0, d3)>, affine_map<(d0, d1, d2, d3) -> (d0, d1, d2, d3)>], iterator_types = ["parallel", "parallel", "parallel", "parallel"]} ins(%2350, %18 : tensor<1x32x1x?xf16>, tensor<1x1x1x?xf16>) outs(%74 : tensor<1x32x1x?xf16>) {
    ^bb0(%in: f16, %in_1189: f16, %out: f16):
      %2395 = arith.addf %in, %in_1189 : f16
      linalg.yield %2395 : f16
    } -> tensor<1x32x1x?xf16>
    %2352:2 = linalg.generic {indexing_maps = [affine_map<(d0, d1, d2, d3) -> (d0, d1, d2, d3)>, affine_map<(d0, d1, d2, d3) -> (d0, d1, d2, 0)>, affine_map<(d0, d1, d2, d3) -> (d0, d1, d2, 0)>], iterator_types = ["parallel", "parallel", "parallel", "reduction"]} ins(%2351 : tensor<1x32x1x?xf16>) outs(%80, %78 : tensor<1x32x1x1xf16>, tensor<1x32x1x1xi64>) {
    ^bb0(%in: f16, %out: f16, %out_1189: i64):
      %2395 = linalg.index 3 : index
      %2396 = arith.index_cast %2395 : index to i64
      %2397 = arith.maximumf %in, %out : f16
      %2398 = arith.cmpf ogt, %in, %out : f16
      %2399 = arith.select %2398, %2396, %out_1189 : i64
      linalg.yield %2397, %2399 : f16, i64
    } -> (tensor<1x32x1x1xf16>, tensor<1x32x1x1xi64>)
    %2353 = linalg.generic {indexing_maps = [affine_map<(d0, d1, d2, d3) -> (0, d1, 0, d3)>, affine_map<(d0, d1, d2, d3) -> (0, d1, 0, 0)>, affine_map<(d0, d1, d2, d3) -> (d0, d1, d2, d3)>], iterator_types = ["parallel", "parallel", "parallel", "parallel"]} ins(%2351, %2352#0 : tensor<1x32x1x?xf16>, tensor<1x32x1x1xf16>) outs(%74 : tensor<1x32x1x?xf16>) {
    ^bb0(%in: f16, %in_1189: f16, %out: f16):
      %2395 = arith.subf %in, %in_1189 : f16
      linalg.yield %2395 : f16
    } -> tensor<1x32x1x?xf16>
    %2354 = linalg.generic {indexing_maps = [affine_map<(d0, d1, d2, d3) -> (0, d1, 0, d3)>, affine_map<(d0, d1, d2, d3) -> (d0, d1, d2, d3)>], iterator_types = ["parallel", "parallel", "parallel", "parallel"]} ins(%2353 : tensor<1x32x1x?xf16>) outs(%74 : tensor<1x32x1x?xf16>) {
    ^bb0(%in: f16, %out: f16):
      %2395 = math.exp %in : f16
      linalg.yield %2395 : f16
    } -> tensor<1x32x1x?xf16>
    %2355 = linalg.generic {indexing_maps = [affine_map<(d0, d1, d2, d3) -> (d0, d1, d2, d3)>, affine_map<(d0, d1, d2, d3) -> (d0, d1, d2, 0)>], iterator_types = ["parallel", "parallel", "parallel", "reduction"]} ins(%2354 : tensor<1x32x1x?xf16>) outs(%84 : tensor<1x32x1x1xf16>) {
    ^bb0(%in: f16, %out: f16):
      %2395 = arith.addf %in, %out : f16
      linalg.yield %2395 : f16
    } -> tensor<1x32x1x1xf16>
    %2356 = linalg.generic {indexing_maps = [affine_map<(d0, d1, d2, d3) -> (0, d1, 0, d3)>, affine_map<(d0, d1, d2, d3) -> (0, d1, 0, 0)>, affine_map<(d0, d1, d2, d3) -> (d0, d1, d2, d3)>], iterator_types = ["parallel", "parallel", "parallel", "parallel"]} ins(%2354, %2355 : tensor<1x32x1x?xf16>, tensor<1x32x1x1xf16>) outs(%74 : tensor<1x32x1x?xf16>) {
    ^bb0(%in: f16, %in_1189: f16, %out: f16):
      %2395 = arith.divf %in, %in_1189 : f16
      linalg.yield %2395 : f16
    } -> tensor<1x32x1x?xf16>
    %collapsed_1175 = tensor.collapse_shape %2356 [[0, 1], [2], [3]] : tensor<1x32x1x?xf16> into tensor<32x1x?xf16>
    %cast_1176 = tensor.cast %inserted_slice_1170 : tensor<1x32x?x128xf16> to tensor<1x32x?x128xf16>
    %collapsed_1177 = tensor.collapse_shape %cast_1176 [[0, 1], [2], [3]] : tensor<1x32x?x128xf16> into tensor<32x?x128xf16>
    %2357 = linalg.batch_matmul ins(%collapsed_1175, %collapsed_1177 : tensor<32x1x?xf16>, tensor<32x?x128xf16>) outs(%88 : tensor<32x1x128xf16>) -> tensor<32x1x128xf16>
    %expanded_1178 = tensor.expand_shape %2357 [[0, 1], [2], [3]] : tensor<32x1x128xf16> into tensor<1x32x1x128xf16>
    %2358 = linalg.generic {indexing_maps = [affine_map<(d0, d1, d2, d3) -> (d0, d1, d2, d3)>, affine_map<(d0, d1, d2, d3) -> (d0, d2, d1, d3)>], iterator_types = ["parallel", "parallel", "parallel", "parallel"]} ins(%expanded_1178 : tensor<1x32x1x128xf16>) outs(%90 : tensor<1x1x32x128xf16>) {
    ^bb0(%in: f16, %out: f16):
      linalg.yield %in : f16
    } -> tensor<1x1x32x128xf16>
    %collapsed_1179 = tensor.collapse_shape %2358 [[0], [1], [2, 3]] : tensor<1x1x32x128xf16> into tensor<1x1x4096xf16>
    %expanded_1180 = tensor.expand_shape %collapsed_1179 [[0], [1], [2, 3]] : tensor<1x1x4096xf16> into tensor<1x1x32x128xf16>
    %expanded_1181 = tensor.expand_shape %cst_2 [[0], [1, 2]] : tensor<4096x4096xi4> into tensor<4096x32x128xi4>
    %2359 = linalg.generic {indexing_maps = [affine_map<(d0, d1, d2) -> (d0, d1, d2)>, affine_map<(d0, d1, d2) -> (d0, d1, 0)>, affine_map<(d0, d1, d2) -> (d0, d1, 0)>, affine_map<(d0, d1, d2) -> (d0, d1, d2)>], iterator_types = ["parallel", "parallel", "parallel"]} ins(%expanded_1181, %cst_230, %cst_229 : tensor<4096x32x128xi4>, tensor<4096x32x1xf16>, tensor<4096x32x1xf16>) outs(%31 : tensor<4096x32x128xf16>) {
    ^bb0(%in: i4, %in_1189: f16, %in_1190: f16, %out: f16):
      %2395 = arith.extui %in : i4 to i32
      %2396 = arith.uitofp %2395 : i32 to f16
      %2397 = arith.subf %2396, %in_1190 : f16
      %2398 = arith.mulf %2397, %in_1189 : f16
      linalg.yield %2398 : f16
    } -> tensor<4096x32x128xf16>
    %2360 = linalg.generic {indexing_maps = [affine_map<(d0, d1, d2, d3, d4) -> (d0, d1, d3, d4)>, affine_map<(d0, d1, d2, d3, d4) -> (d2, d3, d4)>, affine_map<(d0, d1, d2, d3, d4) -> (d0, d1, d2)>], iterator_types = ["parallel", "parallel", "parallel", "reduction", "reduction"]} ins(%expanded_1180, %2359 : tensor<1x1x32x128xf16>, tensor<4096x32x128xf16>) outs(%32 : tensor<1x1x4096xf16>) {
    ^bb0(%in: f16, %in_1189: f16, %out: f16):
      %2395 = arith.mulf %in, %in_1189 : f16
      %2396 = arith.addf %2395, %out : f16
      linalg.yield %2396 : f16
    } -> tensor<1x1x4096xf16>
    %2361 = linalg.generic {indexing_maps = [affine_map<(d0, d1, d2) -> (0, 0, d2)>, affine_map<(d0, d1, d2) -> (0, 0, d2)>, affine_map<(d0, d1, d2) -> (d0, d1, d2)>], iterator_types = ["parallel", "parallel", "parallel"]} ins(%2307, %2360 : tensor<1x1x4096xf16>, tensor<1x1x4096xf16>) outs(%5 : tensor<1x1x4096xf16>) {
    ^bb0(%in: f16, %in_1189: f16, %out: f16):
      %2395 = arith.addf %in, %in_1189 : f16
      linalg.yield %2395 : f16
    } -> tensor<1x1x4096xf16>
    %2362 = linalg.generic {indexing_maps = [affine_map<(d0, d1, d2) -> (0, 0, d2)>, affine_map<(d0, d1, d2) -> (d0, d1, d2)>], iterator_types = ["parallel", "parallel", "parallel"]} ins(%2361 : tensor<1x1x4096xf16>) outs(%19 : tensor<1x1x4096xf32>) {
    ^bb0(%in: f16, %out: f32):
      %2395 = arith.extf %in : f16 to f32
      linalg.yield %2395 : f32
    } -> tensor<1x1x4096xf32>
    %2363 = linalg.generic {indexing_maps = [affine_map<(d0, d1, d2) -> (0, 0, d2)>, affine_map<(d0, d1, d2) -> (d0, d1, d2)>], iterator_types = ["parallel", "parallel", "parallel"]} ins(%2362 : tensor<1x1x4096xf32>) outs(%19 : tensor<1x1x4096xf32>) {
    ^bb0(%in: f32, %out: f32):
      %2395 = math.powf %in, %cst_747 : f32
      linalg.yield %2395 : f32
    } -> tensor<1x1x4096xf32>
    %2364 = linalg.generic {indexing_maps = [affine_map<(d0, d1, d2) -> (d0, d1, d2)>, affine_map<(d0, d1, d2) -> (d0, d1, 0)>], iterator_types = ["parallel", "parallel", "reduction"]} ins(%2363 : tensor<1x1x4096xf32>) outs(%23 : tensor<1x1x1xf32>) {
    ^bb0(%in: f32, %out: f32):
      %2395 = arith.addf %in, %out : f32
      linalg.yield %2395 : f32
    } -> tensor<1x1x1xf32>
    %2365 = linalg.generic {indexing_maps = [affine_map<(d0, d1, d2) -> (0, 0, 0)>, affine_map<(d0, d1, d2) -> (d0, d1, d2)>], iterator_types = ["parallel", "parallel", "parallel"]} ins(%2364 : tensor<1x1x1xf32>) outs(%22 : tensor<1x1x1xf32>) {
    ^bb0(%in: f32, %out: f32):
      %2395 = arith.divf %in, %cst_748 : f32
      linalg.yield %2395 : f32
    } -> tensor<1x1x1xf32>
    %2366 = linalg.generic {indexing_maps = [affine_map<(d0, d1, d2) -> (0, 0, 0)>, affine_map<(d0, d1, d2) -> (d0, d1, d2)>], iterator_types = ["parallel", "parallel", "parallel"]} ins(%2365 : tensor<1x1x1xf32>) outs(%22 : tensor<1x1x1xf32>) {
    ^bb0(%in: f32, %out: f32):
      %2395 = arith.truncf %cst_745 : f64 to f32
      %2396 = arith.addf %in, %2395 : f32
      linalg.yield %2396 : f32
    } -> tensor<1x1x1xf32>
    %2367 = linalg.generic {indexing_maps = [affine_map<(d0, d1, d2) -> (0, 0, 0)>, affine_map<(d0, d1, d2) -> (d0, d1, d2)>], iterator_types = ["parallel", "parallel", "parallel"]} ins(%2366 : tensor<1x1x1xf32>) outs(%22 : tensor<1x1x1xf32>) {
    ^bb0(%in: f32, %out: f32):
      %2395 = math.rsqrt %in : f32
      linalg.yield %2395 : f32
    } -> tensor<1x1x1xf32>
    %2368 = linalg.generic {indexing_maps = [affine_map<(d0, d1, d2) -> (0, 0, d2)>, affine_map<(d0, d1, d2) -> (0, 0, 0)>, affine_map<(d0, d1, d2) -> (d0, d1, d2)>], iterator_types = ["parallel", "parallel", "parallel"]} ins(%2361, %2367 : tensor<1x1x4096xf16>, tensor<1x1x1xf32>) outs(%19 : tensor<1x1x4096xf32>) {
    ^bb0(%in: f16, %in_1189: f32, %out: f32):
      %2395 = arith.extf %in : f16 to f32
      %2396 = arith.mulf %2395, %in_1189 : f32
      linalg.yield %2396 : f32
    } -> tensor<1x1x4096xf32>
    %2369 = linalg.generic {indexing_maps = [affine_map<(d0, d1, d2) -> (0, 0, d2)>, affine_map<(d0, d1, d2) -> (d0, d1, d2)>], iterator_types = ["parallel", "parallel", "parallel"]} ins(%2368 : tensor<1x1x4096xf32>) outs(%5 : tensor<1x1x4096xf16>) {
    ^bb0(%in: f32, %out: f16):
      %2395 = arith.truncf %in : f32 to f16
      linalg.yield %2395 : f16
    } -> tensor<1x1x4096xf16>
    %2370 = linalg.generic {indexing_maps = [affine_map<(d0, d1, d2) -> (d2)>, affine_map<(d0, d1, d2) -> (0, 0, d2)>, affine_map<(d0, d1, d2) -> (d0, d1, d2)>], iterator_types = ["parallel", "parallel", "parallel"]} ins(%cst_673, %2369 : tensor<4096xf16>, tensor<1x1x4096xf16>) outs(%5 : tensor<1x1x4096xf16>) {
    ^bb0(%in: f16, %in_1189: f16, %out: f16):
      %2395 = arith.mulf %in, %in_1189 : f16
      linalg.yield %2395 : f16
    } -> tensor<1x1x4096xf16>
    %expanded_1182 = tensor.expand_shape %2370 [[0], [1], [2, 3]] : tensor<1x1x4096xf16> into tensor<1x1x32x128xf16>
    %expanded_1183 = tensor.expand_shape %cst_1 [[0], [1, 2]] : tensor<11008x4096xi4> into tensor<11008x32x128xi4>
    %2371 = linalg.generic {indexing_maps = [affine_map<(d0, d1, d2) -> (d0, d1, d2)>, affine_map<(d0, d1, d2) -> (d0, d1, 0)>, affine_map<(d0, d1, d2) -> (d0, d1, 0)>, affine_map<(d0, d1, d2) -> (d0, d1, d2)>], iterator_types = ["parallel", "parallel", "parallel"]} ins(%expanded_1183, %cst_228, %cst_227 : tensor<11008x32x128xi4>, tensor<11008x32x1xf16>, tensor<11008x32x1xf16>) outs(%104 : tensor<11008x32x128xf16>) {
    ^bb0(%in: i4, %in_1189: f16, %in_1190: f16, %out: f16):
      %2395 = arith.extui %in : i4 to i32
      %2396 = arith.uitofp %2395 : i32 to f16
      %2397 = arith.subf %2396, %in_1190 : f16
      %2398 = arith.mulf %2397, %in_1189 : f16
      linalg.yield %2398 : f16
    } -> tensor<11008x32x128xf16>
    %2372 = linalg.generic {indexing_maps = [affine_map<(d0, d1, d2, d3, d4) -> (d0, d1, d3, d4)>, affine_map<(d0, d1, d2, d3, d4) -> (d2, d3, d4)>, affine_map<(d0, d1, d2, d3, d4) -> (d0, d1, d2)>], iterator_types = ["parallel", "parallel", "parallel", "reduction", "reduction"]} ins(%expanded_1182, %2371 : tensor<1x1x32x128xf16>, tensor<11008x32x128xf16>) outs(%106 : tensor<1x1x11008xf16>) {
    ^bb0(%in: f16, %in_1189: f16, %out: f16):
      %2395 = arith.mulf %in, %in_1189 : f16
      %2396 = arith.addf %2395, %out : f16
      linalg.yield %2396 : f16
    } -> tensor<1x1x11008xf16>
    %2373 = linalg.generic {indexing_maps = [affine_map<(d0, d1, d2) -> (0, 0, d2)>, affine_map<(d0, d1, d2) -> (d0, d1, d2)>], iterator_types = ["parallel", "parallel", "parallel"]} ins(%2372 : tensor<1x1x11008xf16>) outs(%105 : tensor<1x1x11008xf16>) {
    ^bb0(%in: f16, %out: f16):
      %2395 = arith.negf %in : f16
      %2396 = math.exp %2395 : f16
      %2397 = arith.addf %2396, %cst_743 : f16
      %2398 = arith.divf %cst_743, %2397 : f16
      linalg.yield %2398 : f16
    } -> tensor<1x1x11008xf16>
    %2374 = linalg.generic {indexing_maps = [affine_map<(d0, d1, d2) -> (0, 0, d2)>, affine_map<(d0, d1, d2) -> (0, 0, d2)>, affine_map<(d0, d1, d2) -> (d0, d1, d2)>], iterator_types = ["parallel", "parallel", "parallel"]} ins(%2373, %2372 : tensor<1x1x11008xf16>, tensor<1x1x11008xf16>) outs(%105 : tensor<1x1x11008xf16>) {
    ^bb0(%in: f16, %in_1189: f16, %out: f16):
      %2395 = arith.mulf %in, %in_1189 : f16
      linalg.yield %2395 : f16
    } -> tensor<1x1x11008xf16>
    %expanded_1184 = tensor.expand_shape %cst_0 [[0], [1, 2]] : tensor<11008x4096xi4> into tensor<11008x32x128xi4>
    %2375 = linalg.generic {indexing_maps = [affine_map<(d0, d1, d2) -> (d0, d1, d2)>, affine_map<(d0, d1, d2) -> (d0, d1, 0)>, affine_map<(d0, d1, d2) -> (d0, d1, 0)>, affine_map<(d0, d1, d2) -> (d0, d1, d2)>], iterator_types = ["parallel", "parallel", "parallel"]} ins(%expanded_1184, %cst_226, %cst_225 : tensor<11008x32x128xi4>, tensor<11008x32x1xf16>, tensor<11008x32x1xf16>) outs(%104 : tensor<11008x32x128xf16>) {
    ^bb0(%in: i4, %in_1189: f16, %in_1190: f16, %out: f16):
      %2395 = arith.extui %in : i4 to i32
      %2396 = arith.uitofp %2395 : i32 to f16
      %2397 = arith.subf %2396, %in_1190 : f16
      %2398 = arith.mulf %2397, %in_1189 : f16
      linalg.yield %2398 : f16
    } -> tensor<11008x32x128xf16>
    %2376 = linalg.generic {indexing_maps = [affine_map<(d0, d1, d2, d3, d4) -> (d0, d1, d3, d4)>, affine_map<(d0, d1, d2, d3, d4) -> (d2, d3, d4)>, affine_map<(d0, d1, d2, d3, d4) -> (d0, d1, d2)>], iterator_types = ["parallel", "parallel", "parallel", "reduction", "reduction"]} ins(%expanded_1182, %2375 : tensor<1x1x32x128xf16>, tensor<11008x32x128xf16>) outs(%106 : tensor<1x1x11008xf16>) {
    ^bb0(%in: f16, %in_1189: f16, %out: f16):
      %2395 = arith.mulf %in, %in_1189 : f16
      %2396 = arith.addf %2395, %out : f16
      linalg.yield %2396 : f16
    } -> tensor<1x1x11008xf16>
    %2377 = linalg.generic {indexing_maps = [affine_map<(d0, d1, d2) -> (0, 0, d2)>, affine_map<(d0, d1, d2) -> (0, 0, d2)>, affine_map<(d0, d1, d2) -> (d0, d1, d2)>], iterator_types = ["parallel", "parallel", "parallel"]} ins(%2374, %2376 : tensor<1x1x11008xf16>, tensor<1x1x11008xf16>) outs(%105 : tensor<1x1x11008xf16>) {
    ^bb0(%in: f16, %in_1189: f16, %out: f16):
      %2395 = arith.mulf %in, %in_1189 : f16
      linalg.yield %2395 : f16
    } -> tensor<1x1x11008xf16>
    %expanded_1185 = tensor.expand_shape %2377 [[0], [1], [2, 3]] : tensor<1x1x11008xf16> into tensor<1x1x86x128xf16>
    %expanded_1186 = tensor.expand_shape %cst [[0], [1, 2]] : tensor<4096x11008xi4> into tensor<4096x86x128xi4>
    %2378 = linalg.generic {indexing_maps = [affine_map<(d0, d1, d2) -> (d0, d1, d2)>, affine_map<(d0, d1, d2) -> (d0, d1, 0)>, affine_map<(d0, d1, d2) -> (d0, d1, 0)>, affine_map<(d0, d1, d2) -> (d0, d1, d2)>], iterator_types = ["parallel", "parallel", "parallel"]} ins(%expanded_1186, %cst_224, %cst_223 : tensor<4096x86x128xi4>, tensor<4096x86x1xf16>, tensor<4096x86x1xf16>) outs(%114 : tensor<4096x86x128xf16>) {
    ^bb0(%in: i4, %in_1189: f16, %in_1190: f16, %out: f16):
      %2395 = arith.extui %in : i4 to i32
      %2396 = arith.uitofp %2395 : i32 to f16
      %2397 = arith.subf %2396, %in_1190 : f16
      %2398 = arith.mulf %2397, %in_1189 : f16
      linalg.yield %2398 : f16
    } -> tensor<4096x86x128xf16>
    %2379 = linalg.generic {indexing_maps = [affine_map<(d0, d1, d2, d3, d4) -> (d0, d1, d3, d4)>, affine_map<(d0, d1, d2, d3, d4) -> (d2, d3, d4)>, affine_map<(d0, d1, d2, d3, d4) -> (d0, d1, d2)>], iterator_types = ["parallel", "parallel", "parallel", "reduction", "reduction"]} ins(%expanded_1185, %2378 : tensor<1x1x86x128xf16>, tensor<4096x86x128xf16>) outs(%32 : tensor<1x1x4096xf16>) {
    ^bb0(%in: f16, %in_1189: f16, %out: f16):
      %2395 = arith.mulf %in, %in_1189 : f16
      %2396 = arith.addf %2395, %out : f16
      linalg.yield %2396 : f16
    } -> tensor<1x1x4096xf16>
    %2380 = linalg.generic {indexing_maps = [affine_map<(d0, d1, d2) -> (0, 0, d2)>, affine_map<(d0, d1, d2) -> (0, 0, d2)>, affine_map<(d0, d1, d2) -> (d0, d1, d2)>], iterator_types = ["parallel", "parallel", "parallel"]} ins(%2361, %2379 : tensor<1x1x4096xf16>, tensor<1x1x4096xf16>) outs(%5 : tensor<1x1x4096xf16>) {
    ^bb0(%in: f16, %in_1189: f16, %out: f16):
      %2395 = arith.addf %in, %in_1189 : f16
      linalg.yield %2395 : f16
    } -> tensor<1x1x4096xf16>
    %2381 = linalg.generic {indexing_maps = [affine_map<(d0, d1, d2) -> (0, 0, d2)>, affine_map<(d0, d1, d2) -> (d0, d1, d2)>], iterator_types = ["parallel", "parallel", "parallel"]} ins(%2380 : tensor<1x1x4096xf16>) outs(%19 : tensor<1x1x4096xf32>) {
    ^bb0(%in: f16, %out: f32):
      %2395 = arith.extf %in : f16 to f32
      linalg.yield %2395 : f32
    } -> tensor<1x1x4096xf32>
    %2382 = linalg.generic {indexing_maps = [affine_map<(d0, d1, d2) -> (0, 0, d2)>, affine_map<(d0, d1, d2) -> (d0, d1, d2)>], iterator_types = ["parallel", "parallel", "parallel"]} ins(%2381 : tensor<1x1x4096xf32>) outs(%19 : tensor<1x1x4096xf32>) {
    ^bb0(%in: f32, %out: f32):
      %2395 = math.powf %in, %cst_747 : f32
      linalg.yield %2395 : f32
    } -> tensor<1x1x4096xf32>
    %2383 = linalg.generic {indexing_maps = [affine_map<(d0, d1, d2) -> (d0, d1, d2)>, affine_map<(d0, d1, d2) -> (d0, d1, 0)>], iterator_types = ["parallel", "parallel", "reduction"]} ins(%2382 : tensor<1x1x4096xf32>) outs(%23 : tensor<1x1x1xf32>) {
    ^bb0(%in: f32, %out: f32):
      %2395 = arith.addf %in, %out : f32
      linalg.yield %2395 : f32
    } -> tensor<1x1x1xf32>
    %2384 = linalg.generic {indexing_maps = [affine_map<(d0, d1, d2) -> (0, 0, 0)>, affine_map<(d0, d1, d2) -> (d0, d1, d2)>], iterator_types = ["parallel", "parallel", "parallel"]} ins(%2383 : tensor<1x1x1xf32>) outs(%22 : tensor<1x1x1xf32>) {
    ^bb0(%in: f32, %out: f32):
      %2395 = arith.divf %in, %cst_748 : f32
      linalg.yield %2395 : f32
    } -> tensor<1x1x1xf32>
    %2385 = linalg.generic {indexing_maps = [affine_map<(d0, d1, d2) -> (0, 0, 0)>, affine_map<(d0, d1, d2) -> (d0, d1, d2)>], iterator_types = ["parallel", "parallel", "parallel"]} ins(%2384 : tensor<1x1x1xf32>) outs(%22 : tensor<1x1x1xf32>) {
    ^bb0(%in: f32, %out: f32):
      %2395 = arith.truncf %cst_745 : f64 to f32
      %2396 = arith.addf %in, %2395 : f32
      linalg.yield %2396 : f32
    } -> tensor<1x1x1xf32>
    %2386 = linalg.generic {indexing_maps = [affine_map<(d0, d1, d2) -> (0, 0, 0)>, affine_map<(d0, d1, d2) -> (d0, d1, d2)>], iterator_types = ["parallel", "parallel", "parallel"]} ins(%2385 : tensor<1x1x1xf32>) outs(%22 : tensor<1x1x1xf32>) {
    ^bb0(%in: f32, %out: f32):
      %2395 = math.rsqrt %in : f32
      linalg.yield %2395 : f32
    } -> tensor<1x1x1xf32>
    %2387 = linalg.generic {indexing_maps = [affine_map<(d0, d1, d2) -> (0, 0, d2)>, affine_map<(d0, d1, d2) -> (0, 0, 0)>, affine_map<(d0, d1, d2) -> (d0, d1, d2)>], iterator_types = ["parallel", "parallel", "parallel"]} ins(%2380, %2386 : tensor<1x1x4096xf16>, tensor<1x1x1xf32>) outs(%19 : tensor<1x1x4096xf32>) {
    ^bb0(%in: f16, %in_1189: f32, %out: f32):
      %2395 = arith.extf %in : f16 to f32
      %2396 = arith.mulf %2395, %in_1189 : f32
      linalg.yield %2396 : f32
    } -> tensor<1x1x4096xf32>
    %2388 = linalg.generic {indexing_maps = [affine_map<(d0, d1, d2) -> (0, 0, d2)>, affine_map<(d0, d1, d2) -> (d0, d1, d2)>], iterator_types = ["parallel", "parallel", "parallel"]} ins(%2387 : tensor<1x1x4096xf32>) outs(%5 : tensor<1x1x4096xf16>) {
    ^bb0(%in: f32, %out: f16):
      %2395 = arith.truncf %in : f32 to f16
      linalg.yield %2395 : f16
    } -> tensor<1x1x4096xf16>
    %2389 = linalg.generic {indexing_maps = [affine_map<(d0, d1, d2) -> (d2)>, affine_map<(d0, d1, d2) -> (0, 0, d2)>, affine_map<(d0, d1, d2) -> (d0, d1, d2)>], iterator_types = ["parallel", "parallel", "parallel"]} ins(%cst_672, %2388 : tensor<4096xf16>, tensor<1x1x4096xf16>) outs(%5 : tensor<1x1x4096xf16>) {
    ^bb0(%in: f16, %in_1189: f16, %out: f16):
      %2395 = arith.mulf %in, %in_1189 : f16
      linalg.yield %2395 : f16
    } -> tensor<1x1x4096xf16>
    %2390 = tensor.empty() : tensor<4096x32000xf16>
    %2391 = linalg.generic {indexing_maps = [affine_map<(d0, d1) -> (d0, d1)>, affine_map<(d0, d1) -> (d1, d0)>], iterator_types = ["parallel", "parallel"]} ins(%cst_671 : tensor<32000x4096xf16>) outs(%2390 : tensor<4096x32000xf16>) {
    ^bb0(%in: f16, %out: f16):
      linalg.yield %in : f16
    } -> tensor<4096x32000xf16>
    %collapsed_1187 = tensor.collapse_shape %2389 [[0], [1, 2]] : tensor<1x1x4096xf16> into tensor<1x4096xf16>
    %2392 = tensor.empty() : tensor<1x32000xf16>
    %2393 = linalg.fill ins(%cst_740 : f16) outs(%2392 : tensor<1x32000xf16>) -> tensor<1x32000xf16>
    %2394 = linalg.matmul ins(%collapsed_1187, %2391 : tensor<1x4096xf16>, tensor<4096x32000xf16>) outs(%2393 : tensor<1x32000xf16>) -> tensor<1x32000xf16>
    %expanded_1188 = tensor.expand_shape %2394 [[0], [1, 2]] : tensor<1x32000xf16> into tensor<1x1x32000xf16>
    return %expanded_1188, %inserted_slice_21, %inserted_slice_24, %inserted_slice_57, %inserted_slice_60, %inserted_slice_94, %inserted_slice_97, %inserted_slice_131, %inserted_slice_134, %inserted_slice_168, %inserted_slice_171, %inserted_slice_205, %inserted_slice_208, %inserted_slice_242, %inserted_slice_245, %inserted_slice_279, %inserted_slice_282, %inserted_slice_316, %inserted_slice_319, %inserted_slice_353, %inserted_slice_356, %inserted_slice_390, %inserted_slice_393, %inserted_slice_427, %inserted_slice_430, %inserted_slice_464, %inserted_slice_467, %inserted_slice_501, %inserted_slice_504, %inserted_slice_538, %inserted_slice_541, %inserted_slice_575, %inserted_slice_578, %inserted_slice_612, %inserted_slice_615, %inserted_slice_649, %inserted_slice_652, %inserted_slice_686, %inserted_slice_689, %inserted_slice_723, %inserted_slice_726, %inserted_slice_760, %inserted_slice_763, %inserted_slice_797, %inserted_slice_800, %inserted_slice_834, %inserted_slice_837, %inserted_slice_871, %inserted_slice_874, %inserted_slice_908, %inserted_slice_911, %inserted_slice_945, %inserted_slice_948, %inserted_slice_982, %inserted_slice_985, %inserted_slice_1019, %inserted_slice_1022, %inserted_slice_1056, %inserted_slice_1059, %inserted_slice_1093, %inserted_slice_1096, %inserted_slice_1130, %inserted_slice_1133, %inserted_slice_1167, %inserted_slice_1170 : tensor<1x1x32000xf16>, tensor<1x32x?x128xf16>, tensor<1x32x?x128xf16>, tensor<1x32x?x128xf16>, tensor<1x32x?x128xf16>, tensor<1x32x?x128xf16>, tensor<1x32x?x128xf16>, tensor<1x32x?x128xf16>, tensor<1x32x?x128xf16>, tensor<1x32x?x128xf16>, tensor<1x32x?x128xf16>, tensor<1x32x?x128xf16>, tensor<1x32x?x128xf16>, tensor<1x32x?x128xf16>, tensor<1x32x?x128xf16>, tensor<1x32x?x128xf16>, tensor<1x32x?x128xf16>, tensor<1x32x?x128xf16>, tensor<1x32x?x128xf16>, tensor<1x32x?x128xf16>, tensor<1x32x?x128xf16>, tensor<1x32x?x128xf16>, tensor<1x32x?x128xf16>, tensor<1x32x?x128xf16>, tensor<1x32x?x128xf16>, tensor<1x32x?x128xf16>, tensor<1x32x?x128xf16>, tensor<1x32x?x128xf16>, tensor<1x32x?x128xf16>, tensor<1x32x?x128xf16>, tensor<1x32x?x128xf16>, tensor<1x32x?x128xf16>, tensor<1x32x?x128xf16>, tensor<1x32x?x128xf16>, tensor<1x32x?x128xf16>, tensor<1x32x?x128xf16>, tensor<1x32x?x128xf16>, tensor<1x32x?x128xf16>, tensor<1x32x?x128xf16>, tensor<1x32x?x128xf16>, tensor<1x32x?x128xf16>, tensor<1x32x?x128xf16>, tensor<1x32x?x128xf16>, tensor<1x32x?x128xf16>, tensor<1x32x?x128xf16>, tensor<1x32x?x128xf16>, tensor<1x32x?x128xf16>, tensor<1x32x?x128xf16>, tensor<1x32x?x128xf16>, tensor<1x32x?x128xf16>, tensor<1x32x?x128xf16>, tensor<1x32x?x128xf16>, tensor<1x32x?x128xf16>, tensor<1x32x?x128xf16>, tensor<1x32x?x128xf16>, tensor<1x32x?x128xf16>, tensor<1x32x?x128xf16>, tensor<1x32x?x128xf16>, tensor<1x32x?x128xf16>, tensor<1x32x?x128xf16>, tensor<1x32x?x128xf16>, tensor<1x32x?x128xf16>, tensor<1x32x?x128xf16>, tensor<1x32x?x128xf16>, tensor<1x32x?x128xf16>
  }
}